Lab4/Models/cifar_net.pth (torch, 251604 bytes, 10 tensors)

conv1.weight f4 [6, 3, 5, 5]
000000 d3 12 cf bd 1e 9d b6 bd 44 8b 16 be d3 e9 12 be
       -0.10111012 -0.089166865 -0.14701563 -0.1434701
000010 9b d8 1c be 47 9d a9 be e6 ac 04 bf d1 4b 0d bf
       -0.15317003 -0.33127806 -0.5182632 -0.5519381
000020 03 47 8e be 6f 7d a5 be e2 94 de bd f9 bf 19 bd
       -0.27788553 -0.3232226 -0.10868241 -0.037536595
000030 6d 50 b8 bd 01 d8 ab bd 48 23 ec bc 94 90 c8 3d
       -0.08999715 -0.08390809 -0.028825417 0.09793201
000040 d2 00 6b 3e 73 39 b8 3e b0 c3 8a 3e a2 b2 aa 3e
       0.22949532 0.3598133 0.27102423 0.3333941
000050 84 71 90 3e 08 d2 8d 3e 3b ea 46 3e 98 5d 55 3e
       0.28211606 0.27699304 0.1942529 0.20836484
000060 f9 87 c3 3d b6 a1 8d 3d 6c 6b 9e 3d 44 3f 0f bd
       0.09547419 0.069156095 0.07735333 -0.034972444
000070 6d 63 ec 3c f2 cf 2a bc 13 fb 5b be 57 0e b1 be
       0.028856004 -0.010425555 -0.21482496 -0.34581253
000080 7c de d0 be 26 72 82 be 6b 22 c1 bd 7b 24 45 be
       -0.40794742 -0.25477713 -0.09430393 -0.19252197
000090 f9 32 cb bd da 65 fc 3c a1 53 ed 3d 41 8d 7c bd
       -0.09921832 0.030810285 0.115882166 -0.061658148
0000a0 4f a8 88 3d 22 0f 7b 3e 4f cf 91 3e d9 59 b3 3e
       0.06672727 0.24517491 0.28478476 0.35029486
0000b0 08 8d a8 3e bd 70 86 3e 82 96 82 3e e9 b2 aa 3e
       0.32920098 0.26257887 0.25505453 0.33339623
0000c0 9c 58 96 3e f7 cc 66 3e d4 00 f2 3d 99 f0 0a 3d
       0.2936448 0.22539125 0.11816564 0.033920858
0000d0 c2 37 bb bc 7d 55 e1 bc 40 42 cf bd 83 98 9e be
       -0.022853736 -0.027506584 -0.10120058 -0.30975732
0000e0 d5 fe a1 be 6a 77 77 be ea 0f b7 be f3 0d e6 bd
       -0.31639734 -0.24166647 -0.3575433 -0.11233129
0000f0 48 a4 e5 bc e5 b1 5b bd fe 79 d8 bd 1e a5 e9 bc
       -0.028032437 -0.05363645 -0.10570143 -0.028521117
000100 55 b8 74 3c 0c cd 6a 3d 7e a4 ee 3d 69 ca 72 3e
       0.014936526 0.057324454 0.11652468 0.23710026
000110 cc 73 ef 3d 1f 79 68 3e be b1 b9 3d af 59 25 3e
       0.116920084 0.22702454 0.09067105 0.16147493
000120 98 43 6d 3e 44 a2 13 3d f6 77 06 bd 2c 0f d0 3d
       0.23170316 0.03604342 -0.032829247 0.10159144
000130 15 80 0d be 35 e4 8e bd e6 85 4b 3d 98 48 f7 3c
       -0.1381839 -0.06977121 0.049688242 0.030185983
000140 29 bf 95 3d 7f f1 0a be 59 b4 42 be 7a a9 37 bc
       0.073118515 -0.13568686 -0.1901411 -0.01120984
000150 52 ac e5 3c 1f 6a 50 3e 85 38 85 bd b0 a8 25 be
       0.02803627 0.20352982 -0.06504921 -0.1617763
000160 75 ee a4 3d 33 da 68 3d 16 93 99 3d c4 b6 47 3e
       0.080532946 0.056848716 0.074987575 0.19503313
000170 42 06 5f be 79 34 01 be ca d7 70 3e f4 a4 13 3e
       -0.21779731 -0.12617673 0.23519817 0.14418393
000180 9f 07 8b 3e ed 8c 5f be 14 3f 78 bc de f4 fb 3d
       0.27154252 -0.21831103 -0.015151758 0.12302564
000190 8a 52 46 3d 97 75 ba 3c fe 78 1c 3e d5 f7 70 3e
       0.04841856 0.02276115 0.1528053 0.2353204
0001a0 f4 e8 a6 3d 61 e3 9e 3e 9c 9d 11 3e 3d 72 e6 bd
       0.08149901 0.3103285 0.1422028 -0.11252258
0001b0 12 80 9c 3e d9 7d e9 3d 52 8a 78 3e d9 2b 25 3e
       0.3056646 0.11400957 0.24271515 0.16130008
0001c0 d8 6a 4a be 78 e5 77 3e a3 d9 8a 3e 68 48 73 3e
       -0.1976732 0.24208629 0.2711917 0.2375809
0001d0 16 5d 82 3e 0c cd ae bd 63 42 a3 bd 1b 10 35 3e
       0.25461644 -0.08535203 -0.07971647 0.17681925
0001e0 5d ff 51 3e bd 1b ac 3e b9 31 25 bd 8d 4e b7 3d
       0.2050757 0.33614913 -0.040330622 0.08950529
0001f0 fb ab 4c 3e e5 b0 bf bc 0a b7 90 be 8d a1 3f be
       0.1998748 -0.02339978 -0.28264648 -0.1871397
000200 92 d0 1f be a2 ff 5e be fe c3 dd bd 38 7d 5e be
       -0.15606907 -0.21777204 -0.10828398 -0.21727455
000210 c4 c5 48 be 60 68 58 bd 85 33 10 be 66 85 1a bd
       -0.19606692 -0.052833915 -0.14082153 -0.037724875
000220 48 99 51 be e7 bc ce be 69 d9 18 be 28 7e dc bd
       -0.20468628 -0.40378496 -0.14926685 -0.1076625
000230 e7 27 16 bd 4a 13 9d 3c 79 66 a1 be 74 75 b5 be
       -0.036659148 0.019174237 -0.31523493 -0.35441172
000240 3c 97 4e 3d 1a 93 c2 bd 74 f1 9f bd 02 72 93 be
       0.050437197 -0.09500714 -0.078097254 -0.2879792
000250 27 ad be be 8e 37 86 bc 07 e9 d5 bd 63 57 92 bc
       -0.3724148 -0.016383912 -0.10444837 -0.017863935
000260 2d 89 5d bd 8c f4 b2 bc dc 46 09 be 37 88 66 be
       -0.0540859 -0.021845125 -0.13405937 -0.225129
000270 a4 2e 1e be 75 5a 14 be 67 c7 50 be bc eb 1c be
       -0.1544748 -0.14487632 -0.20388566 -0.153243
000280 9e 3a 76 be a3 4a 10 be 87 fa 55 be bb 2c 39 be
       -0.24045798 -0.14090972 -0.2089635 -0.1808347
000290 48 26 39 be 4d 16 8d bd 2e b4 1d be 42 99 c3 bd
       -0.1808101 -0.06889019 -0.15400764 -0.09550716
0002a0 32 d1 80 bd fc 63 3e be 8c 5e 54 bc 5d 5f c1 3d
       -0.06289901 -0.18592829 -0.012961995 0.09442017
0002b0 57 42 03 be d3 85 25 3c 1f 23 ba bd e0 00 8f 3d
       -0.12818275 0.010102707 -0.0908873 0.06982589
0002c0 1e 7e 2c 3e 3f 11 30 3d a4 0f 0e 3d 09 6f 7b 3d
       0.16844985 0.042985197 0.034682885 0.06138519
0002d0 d5 22 a2 3d e9 b9 53 3d d4 7b 0d 3e c7 23 2f 3d
       0.079168 0.05169097 0.13816768 0.04275873
0002e0 b2 d3 ed 3d 3f ac 97 bd 93 a0 c0 bc 40 13 22 bd
       0.11612643 -0.074059 -0.023514068 -0.03956914
0002f0 2d 63 6c 3d 89 83 3c bc 34 0f 1c bd 13 88 8a 3c
       0.05771177 -0.01150597 -0.038100436 0.016910588
000300 5c 87 16 3e db 06 16 3d af d0 ac 3d 28 77 61 3d
       0.14700073 0.03662763 0.08438241 0.055045277
000310 90 37 52 3d f5 31 d2 3d 8f 9a 42 bd db dd d0 bd
       0.05132252 0.10263435 -0.04751068 -0.101985656
000320 82 fe 8e 3e 7c 63 ac 3e 36 df 84 3e 1f 26 b6 3e
       0.2792855 0.3366965 0.25951546 0.3557596
000330 5a 53 08 3e 54 4c dc 3d f3 0a 0f 3e 2b d5 90 3e
       0.13313046 0.10756746 0.1396902 0.28287634
000340 ec 87 09 3e 39 79 ba 3d 30 c3 d8 3d eb 53 48 3e
       0.13430756 0.09105153 0.10584104 0.19563262
000350 34 a1 8d 3d c7 2e 45 3e df a7 8c 3c 84 a4 21 3e
       0.06915513 0.19256125 0.01716989 0.15785414
000360 14 50 1e 3e 00 fc 92 3e 4d 76 03 3e db 6c 45 3e
       0.15460235 0.28707886 0.12838097 0.19279806
000370 91 27 1e 3e d5 16 ff 3d ed d9 6b 3e 96 09 53 3e
       0.15444781 0.12455527 0.23032351 0.20609125
000380 bd 5e c0 3d 37 99 3e 3d 7e e8 ba 3d 13 df a6 3d
       0.0939307 0.046532836 0.091263756 0.08148017
000390 97 4e 5f 3c ae 4d cc bd 79 f6 37 3d 69 0c 95 3e
       0.013629577 -0.09975754 0.04491279 0.2911103
0003a0 f2 8b 57 3e cc f6 54 3e 04 83 27 3e 59 e5 99 3e
       0.21049479 0.2079727 0.16358572 0.3005779
0003b0 f5 e1 9b 3e ab 22 cf 3e c9 9c 98 3e fc 83 06 3e
       0.3044583 0.40456137 0.29807118 0.13136286
0003c0 8a ec d5 3e 00 e6 aa 3e d3 27 b0 3e 23 8c ab 3e
       0.41782027 0.333786 0.34405383 0.33505353
0003d0 2d d2 0e 3e ec 8d 54 3e c8 15 b9 3e 24 17 80 3e
       0.13947363 0.20757264 0.3614943 0.25017655
0003e0 77 05 61 3e a2 0f 4d 3e e2 e2 72 bc 8a 33 ed 3d
       0.21974741 0.20025495 -0.014824601 0.11582096
0003f0 9a 16 c3 bd ca bb 14 be bc b6 7b bd 97 c4 91 3d
       -0.09525795 -0.14524761 -0.061453566 0.07117575

conv1.bias f4 [6]
000000 06 e9 7d bc 4b 7c f7 3e 7b b6 40 be 55 ac d9 be
       -0.015497452 0.48337016 -0.18819611 -0.4251429
000010 87 e1 f4 bd af 33 b3 3d
       -0.119570784 0.08750092

conv2.weight f4 [16, 6, 5, 5]
000000 aa 08 9d bd 92 6d 51 3d e6 fb 3c 3d a4 a2 be 3d
       -0.07667668 0.051129885 0.046138667 0.09308365
000010 bc 06 f4 bc da 58 e6 bd 43 7c 07 3e b4 bf f2 3c
       -0.029788367 -0.11247416 0.13230996 0.029632427
000020 c4 f5 84 3c 59 c6 e0 bd db 6e a6 3c 87 7d ad 3d
       0.016230471 -0.10975332 0.020316532 0.08471208
000030 6c 5f 92 3b 40 a9 39 bd dd b8 21 be 66 0d 81 bb
       0.0044669416 -0.045327425 -0.15793176 -0.003938365
000040 43 45 db 3c 61 ec 65 bd cb 0c 13 be cc e0 8c bc
       0.026766425 -0.05613363 -0.14360349 -0.017197035
000050 06 f0 8a 3c d7 18 23 bd 27 7f e4 bd 11 9f b5 bd
       0.016960155 -0.03981861 -0.11157065 -0.0886823
000060 f6 75 7c bd 24 94 c6 3d b2 64 a5 bc e9 0d 91 3d
       -0.061635934 0.09696224 -0.020189617 0.07082731
000070 df ac 69 3c 11 45 11 3e a7 6e 11 3e 50 b7 6a 3d
       0.014262407 0.14186503 0.14202367 0.057303727
000080 81 59 27 bd 91 8a e1 3d 83 7b 12 3d 33 64 00 3e
       -0.040856842 0.110127576 0.03576232 0.12538223
000090 ef 57 0f 3d 1d 0c c9 bd 59 ff bd 3d 93 20 0b 3e
       0.03499597 -0.098167636 0.09277219 0.13586645
0000a0 41 43 86 3a f2 04 a1 3c ff 21 64 bd 51 9e b8 3d
       0.0010243432 0.019655678 -0.055696484 0.090145715
0000b0 6a e7 11 3e 60 f2 b3 3d f1 72 8c bd b7 53 82 bd
       0.14248434 0.08786464 -0.06857861 -0.063636236
0000c0 a3 f5 2b 3c f3 88 17 3e 97 aa 82 be 8b e9 07 be
       0.010495576 0.14798336 -0.25520775 -0.13272683
0000d0 e8 bf ac 3d 40 1c b5 3d 81 76 40 3d 62 a5 76 be
       0.08435041 0.08843279 0.046988014 -0.24086526
0000e0 3c 52 57 bc 45 97 86 3d 45 70 27 3e a6 94 96 3c
       -0.013142165 0.06571821 0.16351421 0.018381428
0000f0 be 1b fb bd 1d ea 0c bd d5 25 00 3e 3d 99 5e 3d
       -0.12261151 -0.034402955 0.12514432 0.05434536
000100 05 fd ce 3b 28 77 1e be 60 c3 80 3d 42 35 1b 3e
       0.0063167834 -0.15475142 0.06287265 0.15157035
000110 3b d6 10 3e 4a 74 bc bd 55 7a d8 bd 40 13 a0 3d
       0.14144222 -0.09201868 -0.10570208 0.07816172
000120 76 99 29 3e 01 f0 b3 3d 0b ad c3 3d 38 ef af bd
       0.16562447 0.087860115 0.0955449 -0.08590549
000130 c9 96 52 be cc 8e 15 bd 1a 77 23 3e f8 44 fc 3d
       -0.20565332 -0.036513135 0.15963402 0.12317842
000140 89 68 87 be b0 20 40 be c4 68 3c 3e 6e 9e bd 3d
       -0.26446941 -0.1876247 0.1839934 0.09258734
000150 1d 55 96 bd a7 77 81 be 74 c4 15 be be 9a 5e 3d
       -0.07340453 -0.252866 -0.14625722 0.054346792
000160 75 18 1e 3e 9a 67 a4 bd f9 c4 76 be 97 29 8b 3c
       0.15439017 -0.08027573 -0.24098577 0.016987605
000170 f4 f3 19 3e 6c e9 c8 3d a6 db 14 be 79 a5 5e 3d
       0.15034467 0.09810147 -0.14536914 0.054357026
000180 e4 fb 1f 3e e7 4b 18 3e 58 22 82 3d e8 8d c7 3d
       0.15623432 0.14872704 0.06354207 0.09743863
000190 38 47 45 be 6a d2 97 be 15 2f 1e bd ea c1 34 3e
       -0.19265449 -0.2965272 -0.03861912 0.17652097
0001a0 0a cd 29 3d a3 63 af be 28 f9 41 be 09 4e 84 3e
       0.041455306 -0.34255704 -0.18942702 0.25840786
0001b0 f3 6f 70 3e 47 14 90 3c d6 7d b9 be b7 aa ed 3b
       0.23480205 0.017587794 -0.36228818 0.007253017
0001c0 59 d0 5f 3e 05 32 47 3e 9d 5f d2 bd da ea 6a be
       0.21856822 0.19452675 -0.10272143 -0.22941151
0001d0 67 6e b1 3d ce da de 3d 43 d1 c7 3d a9 d9 89 bc
       0.08663636 0.108815774 0.097567104 -0.016827421
0001e0 fc e5 f6 bd fb 9b 9f 3d 63 5c d9 3d 68 b3 06 3e
       -0.12055585 0.07793423 0.106133245 0.13154376
0001f0 03 ab f1 bc 4d 96 fa bd a0 68 2e 3d 21 8a 12 3e
       -0.02950049 -0.12235699 0.042580247 0.14310504
000200 8c 1a 88 bd 97 14 34 bd 2d d9 93 bd d7 10 c8 3d
       -0.066456884 -0.04396495 -0.07219157 0.09768837
000210 a5 9c dd 3d 02 a7 52 bc 95 1e ed ba d2 d8 22 3d
       0.10820893 -0.012857201 -0.0018090779 0.039757557
000220 a1 f3 c4 3d 0c ab 9c bd d8 96 fe bc 23 f8 95 bc
       0.09616781 -0.07649812 -0.031077787 -0.018306797
000230 72 a0 17 3b 96 c4 6e 3d 4e af 6c bd ae 53 0b 3d
       0.0023136404 0.058292948 -0.05778437 0.03401535
000240 4f 81 1e bd ec 23 89 3d 4b 77 de 3c 40 d8 e6 3c
       -0.038697537 0.06696305 0.027156493 0.028179288
000250 f5 98 9f 3c ea 31 ca 3d 18 e4 82 bd cf 7a ba 3c
       0.019482115 0.098728016 -0.06391162 0.022763638
000260 d3 a8 2c 3d cf 04 35 3c 49 51 e2 bd a8 85 a2 bd
       0.04215319 0.01104851 -0.1105066 -0.07935649
000270 f4 4c e3 bc cb 5d 85 3d 13 4c 01 3b 75 83 bc 3d
       -0.027746655 0.0651203 0.0019729182 0.09204761
000280 86 4c 2b 3c 71 c5 9e bd 87 bc 26 be 16 09 c2 bd
       0.010455256 -0.07752503 -0.16282855 -0.09474389
000290 86 8b bb 3d da fb 9a 3d da cc 46 bd f3 21 e9 bd
       0.09157471 0.07567568 -0.048535205 -0.113834284
0002a0 4e 87 e6 bd 40 a6 72 bd 85 62 8f 3c 37 2c ba ba
       -0.11256276 -0.05924058 0.017503032 -0.0014203851
0002b0 d0 d8 df bc 38 f3 30 be f3 cf 92 bd d4 3b ab bd
       -0.027325064 -0.1728028 -0.071685694 -0.08361021
0002c0 df bb ab bc c0 c4 84 3d cc 8f 3c bc 5c e0 53 bd
       -0.020963607 0.064828396 -0.011508893 -0.051727638
0002d0 0f a1 65 bd af f8 f1 bd e1 0f a8 bd 35 75 ef 3d
       -0.0560618 -0.11815011 -0.08206154 0.11692277
0002e0 20 77 3e 3c cd 74 36 3d f0 8f d8 bd 15 a4 17 bd
       0.011625081 0.044544984 -0.10574329 -0.037021715
0002f0 57 2c 9b bd b4 66 38 3c 97 88 07 bd 58 a6 93 3d
       -0.075768165 0.011254955 -0.033089247 0.07209462
000300 c0 08 37 3c 9b a3 b1 bd 2d 12 13 3d e9 75 9b 3d
       0.01117152 -0.086737834 0.035906006 0.07590849
000310 63 02 54 bd 76 83 86 bb 06 a8 0c bc 75 28 b4 bd
       -0.05176009 -0.004105027 -0.008584982 -0.08796779
000320 6c 1a 28 3e ef 73 a8 3d 1f 74 a2 3d ce c2 aa 3d
       0.16416329 0.082252376 0.079323046 0.08337937
000330 8d 26 62 3d 4c cd 80 3d 1e b4 a1 3d 2d af 98 bc
       0.055212546 0.06289157 0.07895683 -0.018638218
000340 30 8c 0c bc 61 96 c1 bd 87 08 82 bd 20 c5 e6 bd
       -0.008578345 -0.094525106 -0.06349283 -0.11268067
000350 47 a1 18 3d cf 20 35 bd 10 fa 3d bd 47 b9 8a 3c
       0.03726318 -0.04422074 -0.046381056 0.01693405
000360 b1 6b 34 bd 54 70 ad bb 9d c4 bf 3d 10 d9 b7 3c
       -0.044048015 -0.0052929316 0.09363673 0.02244237
000370 a2 c8 a4 3c 24 ce 0c 3a c3 51 2b bd 88 0c eb 3d
       0.0201152 0.00053712935 -0.04182602 0.114769995
000380 f8 dd 75 3c 1e a8 08 3d 3f 48 2d 3e 0c 9c 06 3e
       0.015006535 0.033363454 0.16922091 0.13145465
000390 06 40 89 3d 1d d5 08 bd 68 6f 9a bd ec ef 36 3c
       0.067016646 -0.033406366 -0.0754078 0.0111656
0003a0 af 40 da 3d e8 59 37 3e 7c 6d 8e 3d ec be 1f be
       0.10656869 0.1790539 0.06954476 -0.15600175
0003b0 4a 66 37 bd 42 a1 6f 3d 38 fc 4c 3e b7 96 08 3e
       -0.044775285 0.058503397 0.20018089 0.13338743
0003c0 61 e0 0a be 7b c5 cd bd 4e 17 d9 ba 35 5d 15 3e
       -0.13562156 -0.10047432 -0.0016562731 0.14586337
0003d0 a1 ca 62 3e 64 38 14 bd b7 ec 22 bd ad 46 d7 bc
       0.2214761 -0.03618659 -0.03977653 -0.026278818
0003e0 7b 19 91 3d e6 be 7d 3e fb 19 13 3e 0c 32 14 3e
       0.07084938 0.24779853 0.1436538 0.14472216
0003f0 ad c7 9c 3d bb 71 a7 bd 7e 35 b0 3c 66 ed 65 bd
       0.07655273 -0.08175989 0.021509882 -0.056134604

conv2.bias f4 [16]
000000 24 17 ee 3d ba 67 84 3d 9c db 14 3e 86 44 39 bc
       0.116255075 0.06465097 0.145369 -0.011307841
000010 48 0c 02 bd a1 c0 25 3d 7a 30 a1 3c b4 5d e1 bc
       -0.031749994 0.04046691 0.019676436 -0.027510501
000020 d5 7b 17 3e 21 43 87 3d 6a cd 55 3d ec 7b 0b be
       0.14793332 0.06604601 0.05219785 -0.13621491
000030 af cb 5e 3d 85 18 21 bd b1 97 61 3e 1f 9f c2 bc
       0.054393467 -0.039330024 0.22030522 -0.023757515

fc1.weight f4 [120, 400]
000000 9a ae c9 bc 0f db 97 ba 0d f0 8f 3a ab 07 27 bd
       -0.02461939 -0.001158567 0.0010981575 -0.040778797
000010 47 86 ee 3c 39 71 3f bc bb 05 2f bd bc f4 a7 bc
       0.029116763 -0.011684709 -0.042730074 -0.02050244
000020 ca 39 ea 3c 0b a3 60 bc 1b 71 f9 bc 8d e4 db 3c
       0.02859201 -0.0137107475 -0.03044944 0.02684238
000030 e7 0d 99 bc 21 10 cf 3c 0c df b0 3b 23 7e 14 3d
       -0.018683387 0.025276246 0.005397683 0.036253106
000040 88 a3 8f bc 10 c7 9f 3c e6 3d 16 bd 09 fe d5 bb
       -0.017534032 0.0195041 -0.036680125 -0.0065305275
000050 a8 69 14 bd ee e8 87 3c fd 70 02 bc 2c 16 62 3c
       -0.036233574 0.016590562 -0.007961509 0.0137992315
000060 7b e8 1c bc 0b 12 52 bd 38 44 24 3d 50 13 e4 bb
       -0.009576912 -0.05128674 0.04010412 -0.00696031
000070 1d fb 2e bd ff 7a eb 3c 4d 69 ef bb 08 86 fa bb
       -0.04271995 0.028745173 -0.007306254 -0.0076453723
000080 33 6e 67 3c d2 d8 0c bd f5 7a 24 3d 7f 89 c2 bb
       0.014125395 -0.034386463 0.040156323 -0.005936801
000090 79 9d 26 3b 89 e5 9e 3b 4a cd 8b bc 8f c4 32 3d
       0.002542345 0.00484914 -0.017065663 0.043644484
0000a0 7e 52 39 bd a1 c1 00 3c 07 7e 9b bc 04 a6 ea 3b
       -0.045244686 0.007858665 -0.018980993 0.007160904
0000b0 ff 05 b7 bc 6c 89 e5 3b 40 64 9f 3c ef 3d 16 bd
       -0.022341726 0.0070049074 0.019456983 -0.03668016
0000c0 f7 a4 d9 3c af 8d 60 3b f8 95 ad bc 86 0a 62 bb
       0.02656792 0.0034264138 -0.021189675 -0.0034491136
0000d0 da 81 cd 3c 19 20 e1 bb b9 e5 d9 bb f5 28 ba bc
       0.025086332 -0.0068702814 -0.0066496995 -0.022724608
0000e0 81 97 d2 3c df de ab 3c 0c 37 20 bd 93 2a 0d bd
       0.025707008 0.020980297 -0.039114997 -0.03446443
0000f0 f9 47 85 3c 9d a4 f1 3c 53 9a 17 3c e0 d3 33 bd
       0.01626967 0.029497439 0.009253102 -0.04390323
000100 19 e6 de bc c0 5f c1 bc 33 4c 80 bc 18 8d 12 3c
       -0.027209328 -0.023605227 -0.015661335 0.008944772
000110 f1 ab e9 bc b6 92 2d 3d 15 f8 2f 3d 56 76 a6 bc
       -0.02852437 0.042376243 0.0429612 -0.020320099
000120 fc eb fb 3b ca 48 f7 3c 80 eb 16 3d b6 ba 15 bd
       0.0076880436 0.030186076 0.036845684 -0.036555015
000130 22 ca f0 bc 03 d0 06 bb 3c 58 3a 3d e6 62 3d 3d
       -0.02939326 -0.0020570762 0.045494303 0.046236895
000140 74 26 b1 bc 7d 49 6d 3b 90 20 56 bc ab 9a 5e 3c
       -0.021624781 0.0036207133 -0.013069287 0.01358668
000150 db 66 0f bd 54 26 f5 3c 61 55 2b 3d 07 ea 16 3d
       -0.0350102 0.029925503 0.04182947 0.03684428
000160 02 6a e5 bc 56 98 00 bc ff 4d 8e bc db 85 43 bd
       -0.02800465 -0.00784882 -0.017371176 -0.047735076
000170 42 3f a7 bc 5a db 87 bc 68 e8 48 bd a0 1e 8a bc
       -0.020415906 -0.016584087 -0.049049765 -0.016860306
000180 13 e0 c4 3c f5 ea 12 bd 43 c3 83 bb 85 58 10 bd
       0.024032628 -0.035868604 -0.0040210797 -0.03524067
000190 8e 0a e2 3c 23 31 c8 bb ca 64 cf bc 26 9a fd bb
       0.027592923 -0.006109373 -0.025316615 -0.007739323
0001a0 d5 19 9d 3c c8 fe 80 3c 41 be 17 bd b4 d8 de bc
       0.019177357 0.01574649 -0.037046675 -0.027202941
0001b0 00 4a 31 3d fd dd 7b 3c 42 c6 36 bc 52 d5 57 3c
       0.043283463 0.01537275 -0.011155667 0.013173418
0001c0 78 b6 3d bd ca 2f 62 bc d9 e7 57 3c 15 d0 50 3a
       -0.046316594 -0.013805339 0.013177835 0.0007965577
0001d0 54 98 e6 3c 87 d7 a9 3b 93 4d 48 bd 5d fd 1c bd
       0.028148808 0.0051831636 -0.048902106 -0.038327564
0001e0 4c cd 47 bd 97 e4 cc bb 9c 3f 2f bc dd bf 13 bd
       -0.04877977 -0.006252836 -0.010696318 -0.036071647
0001f0 5a 2e 8f 3a fa f2 b3 bc e4 af 30 3c 52 f9 c6 3b
       0.0010923848 -0.021966446 0.010784123 0.0060722018
000200 ac 44 2f 3d f6 b2 c4 3b a8 8b 25 3c 42 67 45 bd
       0.0427901 0.006002779 0.010104097 -0.048194177
000210 97 f3 46 3d d8 a2 34 bc a5 82 46 3c 57 56 47 bd
       0.04857215 -0.011025153 0.012116109 -0.048666324
000220 a2 0c 58 3c 93 e0 48 bd 79 70 1c 3d 6a 16 f3 ba
       0.013186606 -0.049042296 0.0381932 -0.0018546109
000230 a2 70 e8 bb f7 ed 5e bc 71 8d 67 bb 38 7c bf 3c
       -0.007093505 -0.01360654 -0.0035332108 0.023374662
000240 a1 38 45 bd 8f 4f 21 3d 44 89 34 bc a3 3c 05 bd
       -0.04814971 0.039382514 -0.011019055 -0.03252853
000250 d7 83 b3 bb f5 5e 15 bd 84 c2 7a 3c 20 16 2a 3d
       -0.005478363 -0.03646751 0.015305165 0.041525006
000260 ee b2 a0 bc 70 40 0a bc 7f b0 4d bd f4 5b ce 3c
       -0.01961657 -0.008438215 -0.050217148 0.025190331
000270 f2 b0 f6 3c f2 c1 8b bc 1f ce 2a 3c ca e0 45 bd
       0.030113671 -0.017060254 0.01042512 -0.04831008
000280 89 ed 57 bc b8 90 10 3d 35 99 10 3d fa f0 aa bc
       -0.013179191 0.035294265 0.03530236 -0.02086686
000290 97 ec 34 3d d0 47 4c bd 13 64 30 bd de 22 16 3c
       0.044170942 -0.049873173 -0.04306419 0.009163586
0002a0 d0 0a 9b ba b7 52 ca bc 28 08 81 bc 67 31 85 3c
       -0.0011828784 -0.024697645 -0.01575096 0.016258908
0002b0 8e d0 a1 3c 19 2a 0c 3c fe 5d 12 bd 7d 98 67 3b
       0.019752767 0.008554959 -0.03573417 0.0035338693
0002c0 32 2a d2 bc f6 57 b2 bc 03 55 c3 3c 9a 2d ab 3b
       -0.025654886 -0.021770459 0.023844248 0.005223942
0002d0 5f cc 05 bd a2 50 ec 3c b2 2f b2 ba 8e 9b 3d 3d
       -0.032665607 0.028847042 -0.0013594537 0.046290927
0002e0 b9 36 43 bd b0 7c 46 bd 07 3b 5c bc bd 33 3c 3d
       -0.04765961 -0.048458755 -0.013441808 0.04594778
0002f0 32 91 d8 bc 3e f5 df bc 54 3b f4 3c d5 57 bc 3c
       -0.026436422 -0.02733862 0.029813446 0.0229911
000300 9f ec 95 bb 84 40 8e bc c7 1d 39 bd 02 ea b7 3c
       -0.0045753266 -0.017364748 -0.045194414 0.02245045
000310 e3 c1 37 bb ca 4c 34 bd 51 e1 fc 3c 16 13 19 bd
       -0.002803915 -0.044018544 0.030869158 -0.037371717
000320 55 c7 09 3d ca 4f 24 bd fa 5d 32 3d 73 82 39 bc
       0.033637363 -0.040115155 0.043546654 -0.011322605
000330 cc 31 73 3c 0e bd 35 3d bf 6f 05 bc d2 73 cd bc
       0.0148434155 0.04436975 -0.008144318 -0.025079641
000340 b5 69 c3 3c 9b a2 89 bc 3d 02 d7 3c e8 bd 81 3c
       0.023854116 -0.01680117 0.026246184 0.015837625
000350 1d ab 44 3c ba a4 c9 bc d6 41 36 3c b4 ab fc bc
       0.012003687 -0.02461468 0.011124095 -0.030843593
000360 46 6c ec bc f5 70 0a 3d 25 08 27 bd 04 68 30 3d
       -0.028860223 0.03379913 -0.04077925 0.043067947
000370 ab 45 2c 3d 80 2c 41 bd bf e4 30 bd 8b f8 37 3d
       0.042058628 -0.04716158 -0.0431869 0.044914763
000380 a7 be 2b 3d 4e 1d 00 3d 65 5a 0c 3d db 3a 35 3d
       0.041929867 0.031277947 0.034265894 0.044245582
000390 74 cc 20 bd a2 09 42 bd c5 58 20 bd 57 ec 44 3d
       -0.03925748 -0.047372468 -0.039147157 0.048076954
0003a0 78 71 38 bd d7 48 1f bb c9 e3 c6 bc ad 31 a8 bc
       -0.045030087 -0.002430489 -0.024278538 -0.0205315
0003b0 48 5a 19 3d e5 42 a2 bb 99 cf 32 3d c2 32 43 bd
       0.037439615 -0.004951822 0.04365501 -0.04765583
0003c0 36 c3 13 3d 8e 51 0f bb 20 e8 2a 3d 85 af 19 bc
       0.03607484 -0.0021868679 0.041725278 -0.009380226
0003d0 a5 81 b4 bc a9 05 21 bd 4d 9f 67 bc 26 5c 34 3d
       -0.022034476 -0.03931204 -0.014137101 0.044033192
0003e0 41 ef cd bb 31 58 c7 bb 71 c2 44 3d 3a 90 33 3d
       -0.006284625 -0.0060835113 0.048036996 0.043838717
0003f0 6c ee d3 bc 26 8b 12 3d 83 06 05 3d 78 8b 24 3d
       -0.025870524 0.035777234 0.032476913 0.04017207

fc1.bias f4 [120]
000000 35 a6 fb bc 31 30 0c bd 79 cc 56 bd 2a 8c 2f 3b
       -0.030718902 -0.034225646 -0.052441094 0.0026786425
000010 6e 86 1a 3d 77 2e 55 3d 7c 13 04 bd 05 8c 49 bc
       0.03772586 0.052046265 -0.032245144 -0.01230145
000020 cd 4f e8 3c e0 db 6c bd 6c 52 ff bc a5 d1 30 3c
       0.028358364 -0.057826877 -0.031167232 0.010792171
000030 68 d0 f6 bb 46 2b 15 3c e8 06 6d bc 09 c2 d5 3b
       -0.007532168 0.0091045555 -0.014466979 0.006523375
000040 ce c4 73 bd 43 fd 1f bd a2 00 96 3c 32 7c 25 bc
       -0.05951386 -0.03905989 0.018310849 -0.010100411
000050 66 d4 af bc 2d 05 64 3c 59 f9 1c 3d 36 9a 25 bd
       -0.021463584 0.01391725 0.038323734 -0.04043027
000060 22 01 97 bc 43 7a ab bc 92 bc 9f bc 2e f7 84 3c
       -0.018433157 -0.020932322 -0.019499097 0.016231146
000070 38 83 28 bd d3 0a a3 ba 23 51 18 3d 41 4e 3f 3d
       -0.041140765 -0.0012439139 0.037186753 0.046705488
000080 8e 6b 61 bd c2 7e ae bc f4 c8 bf 3b cb ec a6 bc
       -0.055034213 -0.021300677 0.005852813 -0.020376584
000090 45 b7 2a 3b 12 a1 6b 3d a4 b9 6f bd ea d8 c2 bc
       0.0026049179 0.057526655 -0.05852665 -0.023785073
0000a0 24 e3 00 bd c8 13 31 bd 17 19 a0 3d 32 e7 73 3c
       -0.03146662 -0.043231755 0.078172855 0.014886664
0000b0 f6 a9 49 3d 51 e4 32 bd a6 d8 7a bc ac 73 f9 bb
       0.049234353 -0.04367477 -0.015310442 -0.007612666
0000c0 68 23 e2 3c 9f eb 66 bd 32 8a bb 3d 0a 66 46 3c
       0.027604774 -0.05637705 0.09157218 0.012109289
0000d0 c8 a3 51 bd 8e 68 f3 bb 3f 44 c1 3d 99 12 13 bb
       -0.051181585 -0.0074282354 0.09436845 -0.0022441505
0000e0 92 e2 d3 3c fe ad 68 3c f6 98 26 3c e0 32 09 3e
       0.025864873 0.014201639 0.010168305 0.13398314
0000f0 40 3b a1 bb 7a 12 54 3d 0e f1 9a 3c 55 97 b4 ba
       -0.004920393 0.051775433 0.018913772 -0.0013778011
000100 47 ae b5 bc 46 e3 07 bd e4 fe 89 3c 07 22 0d bd
       -0.022177828 -0.03317573 0.016845174 -0.03445628
000110 3a 7f 19 3d 1f 44 25 3d e8 dd 9e bc 16 42 9f bd
       0.03747485 0.04034817 -0.019392923 -0.07776277
000120 5f 44 13 3c a0 bf 32 3c e2 1a 56 bc 77 81 6a bd
       0.008988469 0.010909945 -0.013067933 -0.057252374
000130 18 68 17 3c ef ed 1f bd 15 c6 d4 ba 57 55 1f bd
       0.0092411265 -0.03904527 -0.001623335 -0.038899746
000140 bf d7 fc bc 7a 09 8a 3c 2c 2e db bc e6 49 72 3d
       -0.030864595 0.016850222 -0.026755415 0.059152506
000150 f5 87 3a 3d 42 ae b6 3c b3 1e 29 3d 10 14 94 3d
       0.045539815 0.02229989 0.041289043 0.07230389
000160 56 02 90 bc 72 32 95 3d a3 d3 aa 3c 7d 6e 97 3d
       -0.017579239 0.07285012 0.02085287 0.07394121
000170 e1 2b 91 3c 11 bc db 3c bc bf 40 bd 60 be 9b bc
       0.017721118 0.026823075 -0.047057852 -0.019011676
000180 01 63 f3 bc 97 5b 91 3b e9 aa 54 3c b2 fe 0e bd
       -0.029710295 0.004435967 0.012980201 -0.034910865
000190 17 af 8c 3d e4 02 47 bd 6c 40 1b bd d4 e9 41 bd
       0.06869333 -0.04858674 -0.037903234 -0.047342137
0001a0 57 73 7d bb d2 22 85 bc e9 da ce bb ea a7 29 3d
       -0.0038673484 -0.016251955 -0.006312717 0.0414199
0001b0 38 71 01 3e 47 f6 39 bd a6 bd 55 3c c2 66 a4 3c
       0.12640846 -0.045400884 0.013045704 0.02006853
0001c0 e6 bd 16 bd 13 74 37 bd 87 af 2c 3d 1d e3 99 3b
       -0.036802195 -0.04478843 0.042159583 0.0046962635
0001d0 d4 03 8e 3d 4a dd 58 3d 6c 7c 32 3c 9d 02 02 3a
       0.06934324 0.052945413 0.010893922 0.0004959496

fc2.weight f4 [84, 120]
000000 26 8e a0 bd d3 91 2b 3c d0 61 21 be c0 b4 d6 3b
       -0.07839613 0.010471779 -0.15759969 0.006552309
000010 79 62 b4 bd eb 3f d2 3d 3c bb 5e 3a a7 26 a7 bd
       -0.08807845 0.10266098 0.0008496528 -0.08161669
000020 05 9c 28 3d f1 42 02 bc 78 1b 98 3d 43 f5 8b bd
       0.041164417 -0.00795053 0.07427114 -0.06833889
000030 17 33 0a 3d 60 32 9a bd 7d 1d 75 3b f5 c6 31 3d
       0.03374013 -0.075291395 0.003740161 0.04340263
000040 bc 06 30 3d 8e a8 1f bb e1 8f 23 3d 62 ea c9 bc
       0.042975172 -0.002436194 0.039932135 -0.024647895
000050 50 90 34 3d 48 55 82 bc db 71 ba 3c 10 a2 28 3b
       0.04408294 -0.015909806 0.022759369 0.0025731362
000060 a6 69 14 be ef 0f c0 bd 6d 29 c0 bd 44 14 cb bd
       -0.14493427 -0.09378039 -0.09382901 -0.09915975
000070 1f 57 4b bd 2f fb 1d 3d 0e 35 89 3d f5 f5 d9 bc
       -0.049643632 0.038569625 0.066995725 -0.02660654
000080 96 30 03 3d 0a cb 9c bc e4 74 ed bd 38 11 6d bd
       0.032028757 -0.019139785 -0.11594561 -0.05787775
000090 d2 22 a2 3d 00 c1 e1 bc 0e ba 6d bd 2a 16 45 3c
       0.07916798 -0.02755785 -0.058038764 0.01202921
0000a0 90 bf 38 3d 8e 46 43 bd af 99 68 bd 46 c3 c3 bd
       0.045104563 -0.047674708 -0.05678719 -0.0955873
0000b0 15 19 9c 3d af 92 53 bd a5 6c 89 bd 3d 1e ae 3d
       0.076219715 -0.05165356 -0.067101754 0.08501861
0000c0 0b e3 82 bd 77 ad 07 be 02 7d 29 3e 56 5e 4a bd
       -0.06390961 -0.13249765 0.16551593 -0.049406372
0000d0 95 0a f1 bc b7 9f c8 bd be 2d 76 3d a2 68 d7 bd
       -0.029423991 -0.09796088 0.060102217 -0.10518004
0000e0 9e 9c cf 3c 83 34 6d bc f3 36 49 bd 7f b5 92 3d
       0.025343236 -0.014477852 -0.04912467 0.07163524
0000f0 53 d6 97 bd ac 97 d8 bc 85 9b b2 bd 7b 43 0c 3d
       -0.07413926 -0.02643951 -0.08721069 0.034244042
000100 a3 12 72 bd 64 5e b6 bd 98 62 21 3d 3c e5 13 3a
       -0.059099805 -0.08904722 0.039400667 0.00056417636
000110 1c 66 df 3d 31 0d 9b 3d cd 74 db 3d 0f 55 8d bd
       0.10908148 0.075708754 0.10715637 -0.06900989
000120 50 4b 05 3d eb 05 df bb ae 83 9d 3c 12 14 22 bb
       0.032542527 -0.0068061254 0.019227829 -0.00247312
000130 2e bd aa 3d 75 d0 65 bc e3 00 c9 bd 76 18 68 bc
       0.083368644 -0.014026751 -0.09814622 -0.014165988
000140 a1 b1 1e 3d e8 c1 8a bc ca dd 68 bd 9d b7 af bd
       0.03874362 -0.016938165 -0.05685214 -0.08579943
000150 c0 6a 85 3b 9c 6f 39 3d bd 3c 50 3d e6 b0 96 3d
       0.0040715635 0.045272455 0.050839175 0.073579594
000160 88 b4 8f 3d 06 c2 a8 3d 9f 39 fe bc 69 b1 f5 3c
       0.070168555 0.08240132 -0.031033335 0.029991822
000170 8f 6a 1f bd 65 39 28 be c1 25 e7 bc de 48 ad bd
       -0.03891998 -0.16428144 -0.028216245 -0.08461164
000180 2a ca 5a 3b 80 ed d1 ba 66 5e 3b bc 7b 2f ad bc
       0.003338466 -0.0016016215 -0.011436081 -0.021140805
000190 2e 07 4e 3d 19 f9 42 3d b3 81 5c bd 6f 46 2d bd
       0.050299816 0.04760084 -0.05383463 -0.0423035
0001a0 0b 46 26 3a 91 95 b1 3d 80 38 da 3d a6 ef d8 3d
       0.00063428347 0.08671106 0.10655308 0.10592584
0001b0 fe 7a 82 3d ab e7 d7 bc c7 7a 7d 3b 39 83 7f bc
       0.06371115 -0.026355585 0.0038677917 -0.015595251
0001c0 de d5 12 3a 40 b7 23 bd d8 10 ae bd 9e 3f 7c bd
       0.00056013267 -0.039969683 -0.084993064 -0.061584108
0001d0 dd da f9 3c 29 0f a6 3c dd 72 be bd 0b 6b 1b 3e
       0.03049987 0.0202709 -0.09299252 0.15177552
0001e0 16 5e 3a bd 20 bf 71 3d b2 97 c3 bc 9b 49 90 3d
       -0.045499884 0.05902016 -0.023876045 0.07045289
0001f0 a2 de ba 3d bf 71 86 3d d5 f2 11 bd f1 9c 05 3c
       0.09124495 0.06564664 -0.035631973 0.0081550935
000200 57 e7 e3 bd 84 18 8a 3d 87 0a 0c 3d 0b 5c 4a 3c
       -0.11128109 0.06742957 0.034189727 0.012351046
000210 36 cf fb 3c 66 a5 b5 bd aa a7 93 bc 63 d5 f4 3c
       0.030738454 -0.08869438 -0.018024284 0.029886907
000220 7d 82 39 bd 12 aa de 3d d4 58 88 bd 3f c7 e8 3c
       -0.04529046 0.10872282 -0.066575676 0.02841532
000230 e0 1f b7 bd 36 39 a4 3c 33 ec 09 3d 47 32 18 3d
       -0.089416265 0.020046812 0.033672523 0.037157323
000240 0c bc dd 3c bc 8d a7 3d a0 56 a2 3d ae d7 14 bd
       0.027067207 0.081813306 0.07926679 -0.0363385
000250 fc 7a 83 3d ea fd a7 3d 43 fc 8b bd 29 9d 2a 3d
       0.06419942 0.08202727 -0.068352245 0.041653786
000260 a8 56 92 3d 16 79 3f bd a7 ef a1 3d 62 e1 e2 bd
       0.071454346 -0.046746336 0.07907038 -0.110781446
000270 5a b4 b9 3d 2e 3a 13 bd 8d 30 fd bb d1 4c 53 bd
       0.090676025 -0.035944156 -0.007726735 -0.05158693
000280 4c cb c3 bc 10 ea 8e bd 33 1e 16 bd b4 6a 03 3c
       -0.02390065 -0.06978238 -0.036649894 0.0080210455
000290 6b 65 04 bd a0 94 51 bd 5a 17 fe bc 6d b9 6c bd
       -0.032323282 -0.05116713 -0.031016994 -0.057794023
0002a0 83 b2 95 3d 70 74 ad bc 8e 1d 04 be 40 5f 93 bd
       0.07309439 -0.021173686 -0.12901899 -0.07195902
0002b0 a0 6c a4 bd d1 da 35 3d 7e 4d 24 bd 69 f6 e0 3c
       -0.08028531 0.044398133 -0.040112965 0.027461248
0002c0 0c 0b 2a 3d 25 7e 19 bd 98 1d 47 bc f4 81 a4 3d
       0.04151444 -0.037473816 -0.012153052 0.08032599
0002d0 55 40 38 3d f3 a7 1a 3d 62 9d d5 3d ee 65 41 bd
       0.044983227 0.037757825 0.10430409 -0.04721635
0002e0 3c 83 76 3d d1 1f 01 bd 2e e0 60 3c 57 e4 26 3d
       0.06018375 -0.031524483 0.013725324 0.040745106
0002f0 5c e2 cf bd 4d 3d 79 3d 6f 80 38 bd b9 28 77 3d
       -0.101505965 0.060849477 -0.04504436 0.06034157
000300 7c 78 11 3d c4 6c 49 bd 2c b6 a8 3d 17 6b d0 bc
       0.035515293 -0.049175993 0.082378715 -0.02544169
000310 1c 95 71 bc bc bd c4 bd a1 88 2b 3d 45 ed a8 bd
       -0.014745023 -0.096065015 0.041878346 -0.082483806
000320 67 f9 15 bd 99 b0 a8 bd 13 cf e6 bc 4f 7c 50 bd
       -0.0366148 -0.08236808 -0.028174913 -0.0508998
000330 bd 71 11 bd 8d 63 8d 3d 5f f6 16 bd 79 d4 09 3e
       -0.03550886 0.069037534 -0.03685605 0.13459958
000340 aa be ce 3d dd a3 6b bd bb 97 03 bd 42 cf 8b 3d
       0.1009496 -0.05752932 -0.032127123 0.06826641
000350 58 d6 c7 bd 05 c1 e6 3d 99 58 e4 bd 7e e8 14 3d
       -0.0975768 0.11267284 -0.11149711 0.036354534
000360 dd cd a3 bc 23 65 d9 3d dc c0 c1 bd 17 77 a0 3d
       -0.019995624 0.106149934 -0.09460613 0.078352146
000370 aa d7 bc 3d 5c 26 8d 3d 60 ee 88 3c 41 80 7d bd
       0.09220822 0.06892082 0.016715229 -0.06188989
000380 80 ae 85 3c f9 0d bd bc 37 65 50 3d 41 69 a8 3d
       0.01631856 -0.023077952 0.050877776 0.082232006
000390 4b e0 13 3e 7c 3d e9 bb f6 88 c0 3c 87 00 cd 3c
       0.1444103 -0.007117925 0.023502808 0.025024666
0003a0 2c c1 ac 3c ef fe ea bb 71 56 86 3c 9e 78 83 3d
       0.021088205 -0.0071715037 0.01639864 0.0641949
0003b0 eb d6 57 ba d7 94 0c bd a5 9e 28 3d 10 2e 48 bc
       -0.00082336244 -0.034321632 0.04116692 -0.012218013
0003c0 0d ac e3 3c e6 8e 6c 3d 4d 24 6d 3d 56 72 a4 3d
       0.027792001 0.057753466 0.057895947 0.0802962
0003d0 1b f9 89 3d be d9 4d 3d 02 d7 8b bc 8d 96 b9 3d
       0.06736966 0.050256483 -0.017070297 0.090619184
0003e0 43 ed 2f bd 93 99 fc bc 09 7d a2 bd b7 cc 84 3d
       -0.04295088 -0.030834949 -0.07934005 0.06484359
0003f0 97 42 b9 bd 15 c7 b5 3d e4 85 39 bd 62 05 18 3b
       -0.09045904 0.088758625 -0.045293704 0.0023196568

fc2.bias f4 [84]
000000 ac 4a ff 3d 0e 36 22 3c d0 e4 b3 bd 86 c2 00 bd
       0.124654144 0.009900583 -0.08783877 -0.031435512
000010 0d d8 17 3c a8 36 97 bd 84 40 10 bd 56 66 9e 3c
       0.009267819 -0.07383472 -0.035217777 0.019335907
000020 05 d9 88 3d 3c 95 85 3d e8 d1 94 3c d7 14 88 3c
       0.06682018 0.06522605 0.018166497 0.0166115
000030 11 30 53 bd ec c3 94 3d e0 aa 80 bb 59 cf 48 3e
       -0.05155951 0.07263932 -0.00392662 0.19610347
000040 3c cc 0b 3e b5 0c 37 3e 09 5d 1d 3d 46 bd 5f bd
       0.13652128 0.17875941 0.038418803 -0.054623865
000050 14 49 9a bd 9c 5b 0e bd 2e e3 04 bd b9 3d 85 3d
       -0.0753347 -0.034755334 -0.032443218 0.06505913
000060 94 1a 5a bd 6e ea 16 3e 57 d3 41 3b 55 3f 21 3d
       -0.053248003 0.14737865 0.0029575431 0.03936704
000070 9a fa b5 bd 9a c5 d9 bc da d4 ec bb cc 22 d8 3d
       -0.08885689 -0.026583482 -0.0072275223 0.10553512
000080 79 0a 6a bd 83 0e 04 3e 25 44 71 bd f7 f7 52 3d
       -0.057138894 0.12896161 -0.05890288 0.05150601
000090 fb b6 d2 3d 8c 48 e9 3d 6d a3 f0 3b 7d 58 b8 3d
       0.10288807 0.1139079 0.0073437006 0.09001253
0000a0 32 65 05 bd 9a a7 c3 3d 89 38 fc 3d 6f 57 05 3c
       -0.03256721 0.09553452 0.12315471 0.008138522
0000b0 e0 c7 d0 bd ff ca e4 bc 8d 1d cb 3d 1d fa 8e 3d
       -0.10194373 -0.027928827 0.09917746 0.06981299
0000c0 fc 4f 8b bd 26 70 bd bd 97 f3 94 3d 99 dc 31 3d
       -0.06802365 -0.09249906 0.072730236 0.04342327
0000d0 fa 18 e6 bc 26 e3 69 bd 71 69 d8 3d 50 4a c3 3b
       -0.028088082 -0.05710139 0.10566986 0.0059597865
0000e0 ea c6 66 bd 67 dd 2a 3d 51 d5 de 3d e3 97 66 bc
       -0.056342043 0.041715052 0.108805306 -0.014074299
0000f0 eb b7 d1 3d 9e 73 7c bc e0 21 ad bc ce 4f 2a bd
       0.10240158 -0.015408425 -0.021134317 -0.041580014
000100 d8 53 69 3d b6 4e 4f bd a1 be bd 3c 35 ec 2b bc
       0.056964725 -0.050612174 0.023162188 -0.010493328
000110 bb 02 f7 3d e2 1c e1 bb 8f 49 25 3e a8 ba 6e 3c
       0.12061068 -0.006869898 0.16141342 0.0145708695
000120 cf 7b b9 bd 74 87 57 bd f1 47 1e 3c 4a 78 dc bc
       -0.09056818 -0.052619413 0.009660707 -0.026912827
000130 a3 25 11 bc ff 2c 00 bc 53 17 af bc b4 86 e3 3d
       -0.008859071 -0.007823228 -0.021373427 0.11109677
000140 51 06 4f bd e1 3e fd 3c 3f 89 39 3d 8c ac 8e 3d
       -0.050543133 0.030913772 0.045296904 0.069665045

fc3.weight f4 [10, 84]
000000 59 2f 7a bd e7 95 35 3d ff ac d8 bd 0f 91 3d be
       -0.06108031 0.04433241 -0.105798714 -0.18512367
000010 f8 40 fa 3d 13 cf a9 bb b5 ac d7 bd 05 6e 4a 3e
       0.12219423 -0.005182156 -0.10530988 0.19768532
000020 c0 91 1e be ad b0 1c be 89 b3 40 3e 19 3c d0 3d
       -0.15485287 -0.15301771 0.18818487 0.10167713
000030 cf ea 42 3d 63 13 c4 3d 38 c6 90 3d 5a 61 51 be
       0.047587212 0.0957401 0.07069057 -0.20447293
000040 9c f3 18 3d 33 36 b3 bd 79 54 b9 3d eb 97 15 be
       0.0373417 -0.08750572 0.09049315 -0.14608733
000050 7c 04 65 3c ba 7a 39 3e 5a 45 c5 bd 14 3b 78 bd
       0.01397812 0.18113223 -0.096323684 -0.060603216
000060 83 87 f0 bd 75 f2 3e 3d 43 67 c3 bd f6 6e 67 3d
       -0.11744597 0.046617944 -0.0954118 0.056502305
000070 99 d5 dc 3d 2f c0 8c 3d 39 d9 c9 bc ed ee 82 3b
       0.10782928 0.068725936 -0.024639713 0.0039957673
000080 38 75 2b 3e 6b 44 6b be 37 dc d6 bc c6 19 5c bd
       0.16743934 -0.22975318 -0.026228053 -0.053735517
000090 dd a5 30 3e eb d6 0a be 04 d9 53 3a 7e 30 42 bc
       0.17250772 -0.13558547 0.0008081349 -0.011852382
0000a0 46 03 1d be 81 51 7e 3e d8 d9 2b 3d 88 1d 53 3c
       -0.1533328 0.24835779 0.0419558 0.012885459
0000b0 02 d9 3a 3e c9 cc 2f bd b1 52 24 3d b5 63 cf bc
       0.18246844 -0.042919908 0.040117923 -0.025316099
0000c0 1f 8d 75 3e db c4 ab 3c b5 fc 27 3d 29 99 0f 3e
       0.23979615 0.020967891 0.041012485 0.1402327
0000d0 90 cf ff bd ec 97 21 bd ca c2 bf bd 7a 84 de 3c
       -0.12490761 -0.039451525 -0.09363325 0.02716278
0000e0 32 83 78 3e 6a b1 10 be 49 4c 49 3e 73 0e 18 bc
       0.24268797 -0.14130178 0.19658007 -0.009280789
0000f0 56 05 80 3d 33 87 61 bd f6 c9 9f 3c aa 49 c5 3c
       0.06251018 -0.055060577 0.019505482 0.024082977
000100 77 02 45 be 1e 67 f3 3c d9 d7 44 3e 7a 63 86 3e
       -0.19239222 0.029712256 0.19222964 0.2624777
000110 91 d4 07 be 45 fd 0c 3d 5f f3 96 bd bf cc 06 3e
       -0.13264681 0.034421224 -0.07370638 0.13164042
000120 3c 99 4b 3d 4c 92 d3 3e 14 64 54 bd 4c 40 54 be
       0.049706683 0.41322553 -0.051853254 -0.20727652
000130 21 b8 11 bc 15 93 c8 3d 57 ce 80 bd 9e 0a 4c 3e
       -0.008893997 0.09793679 -0.06289356 0.19925925
000140 4c 59 fe bd 7c 1e 99 bd a0 4b 6c 3e e5 c2 83 3e
       -0.12419376 -0.074765176 0.23075724 0.2573463
000150 ce b4 75 3a 82 56 49 be 97 9a 29 3d 05 42 68 3e
       0.00093729503 -0.19661906 0.041407194 0.22681434
000160 e4 23 00 be a9 99 e6 3d 65 f1 98 3d 7a fc 9d 3c
       -0.12513691 0.11259777 0.07467917 0.01928543
000170 43 0c 3b 3d 5a f2 04 be 10 95 8f 3c ea 6f 0b 3e
       0.04566599 -0.12983075 0.017527133 0.1361691
000180 dc 92 85 bc 9e 32 31 3b d5 f3 1f 3e 78 58 9c be
       -0.01630538 0.0027038227 0.15620358 -0.30536246
000190 30 bc 60 3d ef 70 3a be 2c 0f 2f 3e 03 9a da 3d
       0.05486697 -0.18207143 0.17095631 0.10673907
0001a0 25 b0 dd 3d 7a c2 96 3d 7a 88 84 3e 7a 6c 80 3d
       0.108246125 0.07361312 0.25885373 0.0627069
0001b0 5b 95 c5 bd 78 05 c5 3d 68 b7 8c 3d 59 8d 1e 3e
       -0.09647628 0.09620184 0.068709195 0.15483607
0001c0 ca 4c b7 bd 98 e7 3d be 23 19 4e bc 27 be ad 3d
       -0.08950193 -0.18545377 -0.012579235 0.08483534
0001d0 8e 60 a8 3c a8 56 83 be af 31 2e bd 5a 2d 4c 3d
       0.020553853 -0.2565205 -0.04252785 0.049847938
0001e0 14 e9 1e be 66 0d 50 be 66 97 55 bd fd 87 da bc
       -0.155186 -0.20317611 -0.052146338 -0.026676172
0001f0 2d 6d 9e 3d 1e a9 4a bd 41 75 63 be 02 ca 1d 3e
       0.077356674 -0.04947769 -0.22212698 0.15409091
000200 a6 72 8c 3d 08 80 9c be 19 73 54 3e 75 6f e5 bd
       0.06857805 -0.3056643 0.20747031 -0.11202899
000210 b1 98 33 be 4a 2c 5e bd 8a 7c 5c be 89 ba 00 bd
       -0.17538716 -0.054241456 -0.21531883 -0.031427894
000220 7c 93 27 bd 86 fa a0 3d 65 5b ab 3e 12 c9 90 bd
       -0.040912136 0.078602836 0.33468166 -0.07069601
000230 c8 d3 f9 bd 29 c5 53 3e 4f fe 90 be 24 12 85 bd
       -0.12198597 0.2068068 -0.28319022 -0.06497601
000240 13 f9 54 bd 3d 0f 6f 3e a1 8a 18 bd e0 65 1f bc
       -0.05199535 0.23345657 -0.03724158 -0.009728879
000250 2b da b5 bd d5 c4 b4 3d 6f 08 50 3c 3e 7e 06 3e
       -0.08879503 0.08826605 0.012697323 0.13134095
000260 70 0f f9 bc 1d a6 8a 3e 81 26 a7 be 34 c6 29 bd
       -0.030402869 0.2707986 -0.32646564 -0.041448787
000270 8b 0f be 3d 9d 91 ed bd 4f c3 80 3c 7e 32 40 3b
       0.09280308 -0.11600039 0.01571813 0.002932697
000280 c0 70 cf 3d 41 ad ba 3c f5 3d 8a bd cc b2 d8 3d
       0.10128927 0.022787692 -0.067500986 0.10580978
000290 df 9a 4a bd fd 63 76 be ac a5 fd bd bf a2 cc bd
       -0.049464103 -0.2406158 -0.12385115 -0.09991979
0002a0 d8 60 7d 3e d9 f5 d7 3d 18 fe e7 bd 1d f3 eb 3d
       0.24743974 0.105449386 -0.113277614 0.115209796
0002b0 8e 30 40 3e 31 eb 04 be 89 43 b4 3d 9d 70 19 3d
       0.18768522 -0.12980343 0.08801944 0.037460912
0002c0 65 01 26 bd 7c 2d 81 bd d9 ba 99 3e 81 6b 5d ba
       -0.040528674 -0.063075036 0.30025366 -0.00084465
0002d0 88 17 28 be 5c 65 c1 3d 75 ba 5c 3c ec 64 3f 3e
       -0.16415226 0.09443161 0.013472189 0.18690842
0002e0 9a 12 a1 bd 72 5f 22 be 7b af 80 bc a8 a0 39 3e
       -0.07864876 -0.15856722 -0.015708676 0.18127692
0002f0 ab 11 6b 3d 10 c8 02 3d f4 6e db bd 09 6c 39 3e
       0.057389896 0.031929076 -0.10714522 0.18107618
000300 5f 51 38 3d 55 04 b3 3d c9 42 03 bd c6 41 f9 3d
       0.044999477 0.08741061 -0.032046113 0.121707484
000310 17 50 c8 bd 00 1f 59 3e 69 8d 6f bd 79 17 f8 3c
       -0.09780901 0.21203232 -0.05848447 0.03028463
000320 d1 1b 1c 3e 15 23 0b be 36 c1 5b 3d b0 7f d6 3c
       0.15244986 -0.13587601 0.053651057 0.026183933
000330 bf c5 af bd 8c 2d d0 bc e4 84 60 3d 35 b2 12 bd
       -0.08582639 -0.025412343 0.054814234 -0.035814483
000340 75 95 52 bd 1d a7 99 bd 1b 17 95 3c 25 71 82 bd
       -0.051412065 -0.075025775 0.018199494 -0.06369237
000350 7f 9f b1 3d d8 69 1a be b5 f5 9b bd a4 96 09 bd
       0.086729996 -0.15079439 -0.07615224 -0.033590928
000360 a5 12 24 3d 9f e0 e5 3d 96 0d 64 3e 8d b2 e3 3d
       0.040056843 0.11224484 0.22270808 0.1111804
000370 9e 61 79 3d d7 de 47 3d cd bc 4b 3d 71 be 1f be
       0.06088411 0.0487965 0.0497406 -0.15599991
000380 c1 bd 82 bc ab 0d f8 bd 99 85 f2 3d 20 8f b2 bd
       -0.015959622 -0.12111982 0.11841888 -0.08718705
000390 e5 8f 0e 3d 3a 40 7e be 9b b5 76 3d 0b e7 36 be
       0.034805197 -0.24829188 0.060231786 -0.17861573
0003a0 20 c3 45 3e 68 bb 18 3d c0 87 bc 3d 4f da ee bc
       0.19312716 0.0372881 0.0920558 -0.029156832
0003b0 a5 0a 98 bc 83 f5 97 bd 7c 30 88 3e c7 8e 5d 3d
       -0.018559763 -0.074198745 0.2659949 0.05409124
0003c0 a4 c2 85 39 ae ac 61 3d af fe 0e be 80 69 22 3e
       0.00025512755 0.05509632 -0.13964342 0.15860558
0003d0 b7 cf 19 3e b0 18 23 bd 8f 93 1d 3e 44 22 c0 bb
       0.15020643 -0.039818466 0.1538832 -0.00586346
0003e0 53 cf 7b 3c 0b 88 e0 bc 1f 6f e2 bc 5a 3c b6 bc
       0.015369254 -0.02740862 -0.027640877 -0.022245575
0003f0 ec 21 3c 3e 0e db fc bd 64 13 35 bd 74 16 a7 bd
       0.18372315 -0.12346469 -0.044207945 -0.081585795

fc3.bias f4 [10]
000000 85 f6 96 be f1 55 54 3d 2a 42 97 3d 51 8e 79 3d
       -0.29484954 0.051839773 0.07385667 0.06092674
000010 6e 08 8a 3e d6 34 1d be f6 b1 fb 3d 3e 90 10 be
       0.26959556 -0.15352187 0.12289803 -0.14117524
000020 29 02 0e 3e 23 4c 2b 3b
       0.13868012 0.002613791
