Lab4/Models/model.pt (torch, 112504 bytes, 26 tensors)

weight f4 [32, 1, 80]
-0.012329888 0.06313876 -0.023581581 -0.012768561 -0.16077481 -0.16392528 -0.1724413 -0.09245994
0.038330168 -0.11673369 -0.02732466 0.07693546 0.009089562 0.015050352 -0.023177166 -0.0588586
-0.17192845 -0.14370623 -0.15278062 -0.025645234 0.03624097 0.045798395 0.091115005 0.032538135
0.028719336 -0.011789228 0.015723579 0.090042375 0.039795935 0.05182108 0.1224406 -0.026670497
0.15679695 -0.0029411868 0.092738636 0.012125118 0.06982344 0.13551678 0.09454813 0.07261675
0.09872969 0.015060288 0.12800214 0.016805569 0.03387574 0.0044306717 0.077093795 -0.056595825
-0.10918801 -0.11815136 -0.099726595 -0.08844933 0.004851251 0.0321145 0.023016734 0.12777922
0.02024113 0.09171428 0.08645437 -0.083935134 0.0292733 0.05691835 0.1319576 0.029705808
0.06507222 -0.040654182 0.0956513 -0.0064977948 -0.12432887 -0.038557697 -0.03746641 -0.06830601
-0.016015178 -0.061924372 0.031150497 0.1378782 0.12618329 -0.010736193 0.020787556 -0.10317501
-0.024388434 -0.008253299 -0.1334333 0.05670636 -0.13394395 -0.119299814 0.04428175 0.10509431
0.08460528 -0.03234442 -0.04347441 0.119766116 0.08478709 0.11333525 0.010436884 0.10302024
0.1371512 0.051882647 0.08731655 -0.03371897 0.052722596 0.012046658 0.023229752 0.024521302
-0.059417706 0.03553339 -0.09150375 0.069735505 -0.11395399 -0.07005718 0.018652923 0.0042946134
-0.014448974 -0.08923539 0.04040964 -0.010194736 -0.011304016 0.12085391 0.0043113586 0.10934289
-0.06169609 0.10944642 0.07840547 0.05277627 -0.07176293 0.043272234 0.05411164 0.08181186
0.03738164 -0.08996743 0.093879275 -0.11557849 -0.054608166 0.02781116 0.028750243 0.0812141
0.07568673 -0.07038402 0.13325694 -0.050625622 0.065572836 0.011359714 -0.05225198 -0.054271303
-0.107002266 -0.0419864 -0.108070806 -0.10830233 -0.089779064 -0.13593078 -0.02328695 -0.03723483
-0.13489841 -0.049977746 -0.063771516 0.026152823 0.08363065 -0.005240711 -0.06784062 -0.06615401
0.01804149 0.017415548 -0.14868316 -0.13427821 0.048462685 0.027291529 -0.107789256 -0.1360921
0.03115905 0.03853109 0.0685314 0.088859245 0.029901706 -0.06313974 0.05097092 0.007672271
-0.028155476 0.09917716 0.015011199 0.053642593 -0.06956296 0.08659314 0.04839817 0.079385005
0.036833182 0.015881848 0.015545481 0.006243959 0.13485827 0.019912459 0.03686947 -0.060483307
-0.00425317 -0.103296384 -0.14190637 -0.073637925 -0.10523977 -0.017687805 -0.09130927 -0.13064796
-0.16619232 -0.056054223 -0.12849645 0.07735954 -0.008588834 -0.060147554 0.044314347 -0.08259843
0.060264595 -0.009891449 -0.044336777 -0.11903031 -0.019291488 -0.0050603696 -0.027274486 -0.11546851
-0.028607842 0.09649899 0.087353095 0.17402181 -0.025548207 -0.022451324 0.14175019 0.06525485
0.021718798 0.025078468 0.11051128 0.13583432 -0.03254946 0.041736443 0.09292341 0.009832174
-0.007848791 0.036768675 -0.064569294 0.018200545 -0.06925424 0.08301408 0.05160774 0.020660317
0.07223559 -0.06163703 -0.063520536 0.06132963 0.0002213833 0.0796647 0.09353901 0.11169732
0.027089257 -0.00731163 0.16614293 -0.10702453 0.111884326 -0.08661537 0.057912108 -0.04327108
00000000: 4c03 4abc e54e 813d 292e c1bc 3a33 51bc
00000010: 27a2 24be 07dc 27be 7494 30be a35b bdbd
00000020: 1800 1d3d 1312 efbd f7d7 dfbc 5790 9d3d
00000030: 63ec 143c c095 763c 0ade bdbc b715 71bd
00000040: 030e 30be ba27 13be 8672 1cbe f415 d2bc
00000050: 6971 143d 1997 3b3d 819a ba3d b546 053d
00000060: d044 eb3c 9b27 41bc bcce 803c 2368 b83d
00000070: 1001 233d 5742 543d 23c2 fa3d 167c dabc
00000080: 618f 203e edc0 40bb c1ed bd3d 6ea8 463c
00000090: 97ff 8e3d e9c4 0a3e 73a2 c13d 17b8 943d
000000a0: cb32 ca3d 6dbf 763c fe12 033e d5ab 893c
000000b0: 4ac1 0a3d 2b2f 913b 5ae3 9d3d 06d1 67bd
000000c0: f79d dfbd 57f9 f1bd 753d ccbd ec24 b5bd
000000d0: 3ef7 9e3b 7e8a 033d 978d bc3c 8ed8 023e
000000e0: bad0 a53c b2d4 bb3d fd0e b13d 2fe6 abbd
000000f0: 8fce ef3c 3723 693d e51f 073e 9859 f33c
00000100: 9644 853d 0085 26bd d4e4 c33d 74eb d4bb
00000110: 22a0 febd adee 1dbd 6176 19bd 05e4 8bbd
00000120: 4332 83bc 69a4 7dbd 542f ff3c f12f 0d3e
00000130: 3136 013e dbe6 2fbc aa4a aa3c 6b4d d3bd
00000140: 41ca c7bc d838 07bc bda2 08be ee44 683d
00000150: 9a28 09be 7653 f4bd c860 353d b03b d73d
00000160: 8845 ad3d 957b 04bd 3912 32bd f047 f53d
00000170: dba4 ad3d 501c e83d 77ff 2a3c 47fc d23d
00000180: 5d71 0c3e e682 543d 05d3 b23d e71c 0abd
00000190: a6f3 573d 595f 453c 524c be3c e6e0 c83c
000001a0: fb5f 73bd 768b 113d 5166 bbbd 7dd1 8e3d
000001b0: b660 e9bd 247a 8fbd 04ce 983c d4b9 8c3b
000001c0: 64bb 6cbc 0bc1 b6bd 9484 253d d207 27bc
000001d0: 7b34 39bc 4182 f73d 4c46 8d3b 2aef df3d
000001e0: 0ab5 7cbd 7225 e03d 0c93 a03d ee2b 583d
000001f0: 71f8 92bd 3a3e 313d 2ba4 5d3d fa8c a73d
00000200: 7e1d 193d d840 b8bd c743 c03d 6ab4 ecbd
00000210: d0ac 5fbd 3bd4 e33c a185 eb3c 9453 a63d
00000220: a501 9b3d 7f25 90bd 8274 083e d05c 4fbd
00000230: 0d4b 863d 181e 3a3c 2c06 56bd 964b 5ebd
00000240: 0124 dbbd eef9 2bbd 3a54 ddbd 9dcd ddbd
00000250: 16de b7bd 7031 0bbe 46c4 bebc 8d83 18bd
00000260: cf22 0abe 77b5 4cbd a49a 82bd 723e d63c
00000270: 8c46 ab3d 45ba abbb 06f0 8abd c17b 87bd
00000280: bfcb 933c 0dab 8e3c 6640 18be 3a80 09be
00000290: cf80 463d 7c92 df3c 9dc0 dcbd ba5b 0bbe
000002a0: 4441 ff3c c7d2 1d3d 315a 8c3d d6fb b53d
000002b0: 6cf4 f43c 684f 81bd e2c6 503d ad67 fb3b
000002c0: 50a6 e6bc 651d cb3d 88f1 753c 56b8 5b3d
000002d0: 0677 8ebd bf57 b13d 293d 463d 9b94 a23d
000002e0: 64de 163d a61a 823c 79b2 7e3c 209a cc3b
000002f0: 4918 0a3e 741f a33c 7104 173d 58bd 77bd
00000300: 2d5e 8bbb 0e8d d3bd e74f 11be 7bcf 96bd
00000310: f387 d7bd 04e6 90bc 5b00 bbbd 94c8 05be
00000320: 522e 2abe 1d99 65bd 9394 03be ae6e 9e3d
00000330: 2eb8 0cbc 485d 76bd f682 353d 5e29 a9bd
00000340: 02d8 763d be0f 22bc 7b9a 35bd 2ac6 f3bd
00000350: 2f09 9ebc 75d1 a5bb be6e dfbc c17a ecbd
00000360: fe5a eabc 43a1 c53d 2ee6 b23d c632 323e
00000370: 794a d1bc d7eb b7bc f626 113e 56a4 853d
00000380: 9feb b13c 5c71 cd3c bd53 e23d 2718 0b3e
00000390: 9552 05bd d5f3 2a3d a14e be3d 2017 213c
000003a0: 3798 00bc c09a 163d e83c 84bd 4f19 953c
000003b0: 2bd5 8dbd 4903 aa3d a362 533d d33f a93c
000003c0: 41f0 933d 1c77 7cbd 0e17 82bd c734 7b3d
000003d0: 2123 6839 3f27 a33d 6191 bf3d 91c1 e43d
000003e0: 4aea dd3c 6696 efbb 5f21 2a3e ad2f dbbd
000003f0: 9c23 e53d 6663 b1bd 3f35 6d3d 043d 31bd

bias f4 [32]
-0.10637057 0.07017343 0.038033795 0.03050797 0.101229094 0.02640697 0.046993945 0.08017476
0.076350234 0.04975227 0.05590141 -0.037618544 0.0032214378 -0.111438915 0.10089085 -0.1080203
0.07147429 -0.02497367 0.038516086 0.010869585 0.009538135 0.029620534 -0.07859875 0.0152459
0.015372723 -0.06975929 0.0890913 0.04750665 -0.060612645 0.06932949 -0.011216551 0.032434057
00000000: d0d8 d9bd 16b7 8f3d 53c9 1b3d daeb f93c
00000010: 3351 cf3d 6e53 d83c b97c 403d aa32 a43d
00000020: 835d 9c3d 09c9 4b3d e0f8 643d e715 1abd
00000030: c21e 533b 163a e4bd dd9f ce3d bf39 ddbd
00000040: 1d61 923d 9595 ccbc 0bc3 1d3d 5816 323c
00000050: d645 1c3c c3a6 f23c 62f8 a0bd f0c9 793c
00000060: e0dd 7b3c f5dd 8ebd 8075 b63d 5596 423d
00000070: f744 78bd 9ffc 8d3d a0c5 37bc 93d9 043d

weight f4 [32]
1.0345832 0.93482363 1.0460693 1.0348865 0.99301684 0.99102956 0.9287401 1.0519449
0.97742677 0.99708724 0.998778 0.93731445 0.9770286 1.047914 1.0031173 0.98852116
0.9861063 1.014047 1.0364574 1.001357 0.97254884 1.0272987 1.0677755 0.9796477
0.9796709 0.9856572 1.0034144 1.001772 1.0240358 0.96945643 1.0111743 0.99773335
00000000: 396d 843f 9a50 6f3f 99e5 853f 2977 843f
00000010: 5a36 7e3f 1db4 7d3f e9c1 6d3f 21a6 863f
00000020: a438 7a3f 1c41 7f3f eaaf 7f3f d7f3 6f3f
00000030: 8c1e 7a3f 0c22 863f 2666 803f b90f 7d3f
00000040: 7671 7c3f 4bcc 813f a3aa 843f 772c 803f
00000050: f6f8 783f 867e 833f deac 883f 31ca 7a3f
00000060: b6cb 7a3f 0854 7c3f e26f 803f 113a 803f
00000070: 9b13 833f 4c2e 783f 296e 813f 746b 7f3f

bias f4 [32]
0.009543419 0.0050572287 0.01857989 0.018178074 0.035303056 0.025306651 0.010629331 0.029761672
0.021385526 -0.020684699 0.024919039 -0.009189968 0.03468595 -0.0029213035 -0.004801019 0.0022392333
0.0019301698 -0.020381738 0.025852438 -0.016680818 0.03661365 -0.0027870112 0.0049464186 -0.006202485
0.006488671 0.01350268 -0.0060582072 0.041948948 0.0057057105 0.0074941125 0.0027895595 0.019845493
00000000: 005c 1c3c 1cb7 a53b da34 983c 2fea 943c
00000010: f099 103d e54f cf3c a526 2e3c c0ce f33c
00000020: b330 af3c f572 a9bc 0323 cc3c 8591 16bc
00000030: db12 0e3d 5773 3fbb de51 9dbb 1ac0 123b
00000040: c0fd fc3a 9af7 a6bc 7ec8 d33c 36a6 88bc
00000050: 32f8 153d 4aa6 36bb 9115 a23b 373e cbbb
00000060: eb9e d43b 583a 5d3c ed83 c6bb a9d2 2b3d
00000070: f8f6 ba3b 2c91 f53b 0bd1 363b 0493 a23c

running_mean f4 [32]
-0.10721807 0.07028645 0.038117636 0.03192076 0.10503669 0.024985084 0.047236003 0.078525476
0.075959414 0.04904487 0.05654792 -0.03815375 -0.00087846647 -0.10776255 0.10522624 -0.10893065
0.07174329 -0.022528037 0.03449946 0.01132684 0.01217556 0.026437126 -0.07733529 0.010881796
0.017873308 -0.06601015 0.0903755 0.04426064 -0.05768738 0.067676544 -0.010573977 0.02948387
00000000: 2695 dbbd 58f2 8f3d 3d21 1c3d 58bf 023d
00000010: 7a1d d73d 85ad cc3c 8a7a 413d f7d1 a03d
00000020: 9c90 9b3d 46e3 483d cb9e 673d 1b47 1cbd
00000030: e348 66ba 9db2 dcbd db80 d73d 0817 dfbd
00000040: 25ee 923d b88c b8bc 4e4f 0d3d 3694 393c
00000050: 007c 473c ac92 d83c f761 9ebd 8f49 323c
00000060: 0b6b 923c 5430 87bd ca16 b93d a54a 353d
00000070: 9a49 6cbd 009a 8a3d 793e 2dbc 2888 f13c

running_var f4 [32]
0.0009997298 0.0005813719 0.000926336 0.00091775635 0.0010988098 0.00057034683 0.0005381605 0.0008831775
0.0006615648 0.0007323066 0.0010971973 0.00042551837 0.0006231156 0.0005014693 0.00053251244 0.00045336888
0.000634112 0.0010217362 0.0007739343 0.00033709127 0.0006332098 0.0005956761 0.0008115522 0.0010203462
0.0005493429 0.0014561204 0.0006540247 0.00046826323 0.0006681029 0.0007788401 0.0005326859 0.0006425705
00000000: 5e09 833a 3567 183a 5bd5 723a 9695 703a
00000010: f005 903a 5483 153a 5713 0d3a 0a85 673a
00000020: dd6c 2d3a 44f8 3f3a d5cf 8f3a 1c18 df39
00000030: 9458 233a 0975 033a 4e98 0b3a 24b2 ed39
00000040: 893a 263a c7eb 853a dae1 4a3a a0bb b039
00000050: fefd 253a 2527 1c3a 59be 543a 23bd 853a
00000060: c701 103a 4bdb be3a db72 2b3a 3a81 f539
00000070: a023 2f3a 132b 4c3a f2a3 0b3a 2d72 283a

weight f4 [32, 32, 3]
-0.049448512 -0.09934073 0.038359646 -0.11438392 -0.09965694 -0.06021903 -0.027739704 0.060280688
0.034644056 0.0047003254 0.027765105 -0.07921171 -0.10215055 0.047856953 -0.033963494 -0.08809331
-0.11287443 -0.05322369 -0.020322297 0.044036526 0.070938304 -0.106698915 0.03463162 -0.11236976
-0.07205302 -0.01801767 0.061720427 -0.016906638 0.06862972 -0.05581661 -0.037973147 -0.022436596
0.08229158 0.056608256 -0.049689636 -0.090188466 -0.108965084 -0.13524969 0.02654514 0.04707112
0.07612899 -0.015004546 0.02812869 0.09871981 -0.06755681 0.0035055645 0.002350193 -0.103744544
-0.0858998 0.0031563158 -0.11343781 -0.007289283 0.058274243 -0.07597586 0.052753236 -0.0264601
-0.019214654 -0.04036566 -0.09340011 -0.025479008 0.040009405 -0.032157872 0.039677154 -0.047835253
0.04869112 0.043301225 -0.051020566 0.05097651 -0.09395217 -0.107037984 0.030734412 -0.05671468
0.01358937 -0.07289627 0.013709752 0.09410322 -0.013795549 0.08530005 0.09975698 -0.02871461
-0.028224226 -0.09892143 -0.09940371 -0.07339543 0.102986 0.08339083 -0.025730858 -0.05096282
-0.106824696 0.036019992 0.01292117 0.05058575 0.008334779 0.066837266 -0.09906164 0.029301077
0.0343581 -0.056498095 -0.06514871 0.028033296 0.13512938 0.1000892 0.07130784 0.05999167
0.08481973 0.09127891 -0.0056673144 0.0006273975 0.026302706 0.06703021 0.031837773 -0.13699357
-0.15828957 -0.06272628 -0.012034292 -0.11443887 0.089503236 0.09687856 0.06506584 0.08754893
-0.010418884 0.12013091 -0.004025868 0.14867403 0.029412102 0.0056649717 0.012435539 -0.062209588
0.033567265 -0.09136408 0.15333822 -0.05304428 -0.02292958 -0.08479298 -0.073057696 -0.11791943
-0.16826588 -0.11990787 0.056052793 -0.14494827 -0.0025919713 -0.023286667 0.10350554 0.07414715
-0.021656716 0.043651447 -0.11910295 -0.103816696 0.03342356 -0.06067565 0.06858437 0.11452531
-0.032503687 -0.06648813 -0.07431041 -0.02053127 -0.055384967 0.11020838 0.06341191 -0.09776915
-0.023181077 0.016445428 -0.054136805 -0.14709839 0.0719525 0.068606615 -0.06947637 0.007179822
-0.040650107 0.014636829 -0.07004865 -0.020892099 0.053658895 -0.06610053 0.15272729 0.09660637
0.017436704 -0.078199185 -0.042191554 -0.070321836 0.0704245 -0.049525782 0.044726767 0.07728555
0.033530522 0.07372022 0.05344106 -0.025537904 -0.01468311 0.042195417 -0.05756183 -0.051582478
-0.035488605 0.07577463 -0.11396157 -0.0694603 0.005189299 -0.0031926378 0.050508574 -0.045899373
0.09476993 -0.010564337 -0.09635139 -0.09606615 -0.08245671 -0.10992229 -0.085414924 -0.001092915
-0.044149395 0.01049518 -0.015617239 -0.037295274 0.0697641 0.03860755 0.0663082 0.026526647
0.053580537 0.007469675 -0.024030495 0.042172864 -0.0013066177 -0.13444942 -0.06809645 0.032459196
-0.11570449 -0.010450708 -0.038414408 0.06593502 0.05701741 -0.012943982 -0.0070415162 0.04636702
-0.1204311 -0.09208384 0.07046634 -0.055245724 -0.13048321 0.0572567 -0.03291232 0.047793664
-0.04988345 0.014595674 0.0662756 -0.11257089 -0.09653103 0.083388925 0.02856611 -0.085652195
-0.1043948 0.088445775 0.019932218 -0.0048240405 0.06314507 0.05887306 -0.09660159 0.011573043
00000000: 868a 4abd 2773 cbbd 011f 1d3d 1e42 eabd
00000010: f018 ccbd 3ba8 76bd 603e e3bc e2e8 763d
00000020: ede6 0d3d 3005 9a3b a573 e33c c039 a2bd
00000030: 4f34 d1bd a705 443d 4e1d 0bbd 446a b4bd
00000040: b62a e7bd 1501 5abd f27a a6bc a55f 343d
00000050: 1a48 913d f684 dabd e3d9 0d3d 1e22 e6bd
00000060: 8990 93bd cb99 93bc 8fce 7c3d ca7f 8abc
00000070: bd8d 8c3d f59f 64bd bb89 1bbd f4cc b7bc
00000080: 7d88 a83d 0fde 673d 5c87 4bbd bbb4 b8bd
00000090: 1629 dfbd e57e 0abe 3275 d93c a6cd 403d
000000a0: 84e9 9b3d a1d5 75bc 236e e63c 9d2d ca3d
000000b0: 3a5b 8abd 9dbd 653b b205 1a3b 0578 d4bd
000000c0: 3cec afbd 31da 4e3b 1552 e8bd f0da eebb
000000d0: f9b0 6e3d 3b99 9bbd c713 583d dac2 d8bc
000000e0: 0d68 9dbc 7656 25bd 8f48 bfbd 5ab9 d0bc
000000f0: e7e0 233d f9b7 03bd 8384 223d e6ee 43bd
00000100: 5770 473d a05c 313d f1fa 50bd bfcc 503d
00000110: ff69 c0bd bb36 dbbd bcc6 fb3c a74d 68bd
00000120: f3a5 5e3c a44a 95bd de9e 603c 30b9 c03d
00000130: ba06 62bc cbb1 ae3d 634d cc3d e73a ebbc
00000140: 7e36 e7bc 5297 cabd 2c94 cbbd 5850 96bd
00000150: 53ea d23d d0c8 aa3d 85c9 d2bc 64be 50bd
00000160: e8c6 dabd b389 133d 51b3 533c 0133 4f3d
00000170: 998e 083c fae1 883d d4e0 cabd d008 f03c
00000180: 14bb 0c3d 8c6a 67bd b06c 85bd 15a6 e53c
00000190: 5b5f 0a3e 91fb cc3d d809 923d d3b9 753d
000001a0: f7b5 ad3d 70f0 ba3d e1b4 b9bb ef77 243a
000001b0: c678 d73c 2247 893d 5368 023d 0b48 0cbe
000001c0: a916 22be a376 80bd 7b2b 45bc ed5e eabd
000001d0: 794d b73d 4468 c63d 3d41 853d da4c b33d
000001e0: f8b3 2abc 3207 f63d 6eeb 83bb 013e 183e
000001f0: a6f1 f03c 3aa1 b93b 6ebe 4b3c 7bcf 7ebd
00000200: d47d 093d 171d bbbd b204 1d3e f544 59bd
00000210: d1d6 bbbc f1a7 adbd 469f 95bd be7f f1bd
00000220: e44d 2cbe 4292 f5bd 9d97 653d 526d 14be
00000230: 10de 29bb aec3 bebc b6fa d33d 76da 973d
00000240: 6d69 b1bc dccb 323d 3fec f3bd d99d d4bd
00000250: 25e7 083d 0887 78bd f675 8c3d 3f8c ea3d
00000260: 9622 05bd ee2a 88bd 0e30 98bd 3231 a8bc
00000270: 59db 62bd eeb4 e13d 1ade 813d 313b c8bd
00000280: 3ee6 bdbc 90b8 863c 8ebe 5dbd f6a0 16be
00000290: d55b 933d a081 8c3d a149 8ebd b644 eb3b
000002a0: ba80 26bd 4fcf 6f3c ab75 8fbd e825 abbc
000002b0: 6ec9 5b3d b75f 87bd 8b64 1c3e 8fd9 c53d
000002c0: 6bd7 8e3c e526 a0bd 0dd1 2cbd e504 90bd
000002d0: b83a 903d 8cdb 4abd 6a33 373d e347 9e3d
000002e0: 4d57 093d a0fa 963d 03e5 5a3d de34 d1bc
000002f0: 6d91 70bc 1ad5 2c3d f4c5 6bbd 2648 53bd
00000300: 805c 11bd bb2f 9b3d af64 e9bd 3441 8ebd
00000310: ff0a aa3b 933b 51bb 14e2 4e3d fb00 3cbd
00000320: bd16 c23d 0a16 2dbc e153 c5bd 54be c4bd
00000330: 10df a8bd f01e e1bd 05ee aebd 2440 8fba
00000340: ffd5 34bd faf3 2b3c 73df 7fbc eec2 18bd
00000350: 7be0 8e3d f322 1e3d 98cc 873d 694e d93c
00000360: 4477 5b3d 2dc4 f43b 9adb c4bc 74bd 2c3d
00000370: d142 abba 1cad 09be 2776 8bbd eff3 043d
00000380: 7af6 ecbd 7239 2bbc 6d58 1dbd f108 873d
00000390: 168b 693d ff12 54bc 85bc e6bb 58eb 3d3d
000003a0: 95a4 f6bd 7496 bcbd a850 903d 5749 62bd
000003b0: 649d 05be 0086 6a3d 12cf 06bd 4ac3 433d
000003c0: 9752 4cbd b222 6f3c 80bb 873d 918b e6bd
000003d0: 10b2 c5bd d0c7 aa3d 7a03 ea3c 6b6a afbd
000003e0: f1cc d5bd 0f23 b53d e448 a33c fc12 9ebb
000003f0: 3452 813d e124 713d 0ed7 c5bd dc9c 3d3c

bias f4 [32]
-0.0010612855 0.09840367 -0.05371103 -0.0041147307 -0.066651985 0.01302909 0.0010011243 0.0799804
-0.007812828 -0.028118862 0.077106796 -0.037749402 -0.023348829 0.06315957 -0.064664975 -0.02005585
0.034420397 -0.036075175 0.017207833 -0.09283506 0.082559854 0.0017756483 0.08216664 -0.061769933
-0.013606315 0.07934744 0.03627769 0.0637154 -0.056232713 -0.05687187 -0.068219304 -0.0929576
00000000: d51a 8bba dd87 c93d 1900 5cbd ddd4 86bb
00000010: d680 88bd f777 553c 2838 833a c4cc a33d
00000020: 6001 00bc 8759 e6bc 2bea 9d3d 1e9f 1abd
00000030: 0b46 bfbc ce59 813d 126f 84bd 2a4c a4bc
00000040: 67fc 0c3d 90c3 13bd 71f7 8c3c 4f20 bebd
00000050: 2415 a93d dfbc e83a fc46 a83d 7802 7dbd
00000060: 05ed 5ebc e980 a23d ea97 143d 387d 823d
00000070: 4654 66bd 7af2 68bd 90b6 8bbd 8e60 bebd

weight f4 [32]
1.0176793 0.96028465 0.9898417 0.9967397 0.99114513 1.014136 0.9314999 1.0103469
0.98726666 1.0128039 1.0022656 0.98071593 0.968959 0.9934746 1.010376 0.9962512
1.0243129 1.0152196 0.99605095 1.0235283 0.9957111 1.1216891 1.027176 1.0180669
1.0286807 1.0498118 1.0128491 1.020912 0.8913479 0.9960215 0.97204614 0.93496364
00000000: 5143 823f 37d5 753f 4466 7d3f 552a 7f3f
00000010: b0bb 7d3f 35cf 813f c776 6e3f 0c53 813f
00000020: 82bd 7c3f 8fa3 813f 3d4a 803f 3310 7b3f
00000030: b20d 783f 5a54 7e3f 0054 813f 520a 7f3f
00000040: af1c 833f b7f2 813f 32fd 7e3f fa02 833f
00000050: ece6 7e3f 8293 8f3f 817a 833f 0450 823f
00000060: cfab 833f 3c60 863f 0aa5 813f 3fad 823f
00000070: 602f 643f 44fb 7e3f 04d8 783f c759 6f3f

bias f4 [32]
0.021673558 -0.007603022 -0.004571364 -0.0010664512 -0.00023768477 0.011049518 0.0219627 0.058296405
0.007184244 -0.008151841 0.020024834 0.03697339 -0.020927815 0.008459486 0.028429454 0.045275923
0.049814336 0.00047780806 0.056940906 0.016121743 0.06461777 0.040107515 -0.03423757 -0.0023744318
-0.030237276 0.07238844 0.033127904 -0.035006568 0.02373819 0.07944689 -0.033962093 0.023384985
00000000: bf8c b13c c522 f9bb 61cb 95bb 2ac8 8bba
00000010: 053b 79b9 0a09 353c 1feb b33c 36c8 6e3d
00000020: cf69 eb3b 4d8f 05bc 1f0b a43c 6971 173d
00000030: cf70 abbc a899 0a3c e3e4 e83c 3f73 393d
00000040: 1e0a 4c3d 5082 fa39 de3a 693d bf11 843c
00000050: 5256 843d c747 243d b23c 0cbd 5b9c 1bbb
00000060: 2ab4 f7bc 6440 943d 20b1 073d 0c63 0fbd
00000070: 9876 c23c 0db5 a23d d61b 0bbd de91 bf3c

running_mean f4 [32]
-0.60013604 0.11870396 -0.72263217 1.1936964 0.21444584 -0.594443 0.6828459 -0.25210962
-0.8667652 1.0798036 -1.7277882 0.35555866 1.3673855 -0.9367992 -0.6945246 -0.6615698
-0.50389785 -0.6283246 0.326386 0.24386744 -0.57365394 0.11123377 0.07815472 -0.8605111
-0.053640097 0.56137407 -1.0828499 0.5106186 0.065906465 -0.11583628 0.4922966 0.63352996
00000000: 84a2 19bf 101b f33d 6cfe 38bf 0bcb 983f
00000010: b197 5b3e 6b2d 18bf fdce 2e3f 8314 81be
00000020: 53e4 5dbf 0137 8a3f 2a28 ddbf c90b b63e
00000030: 7d06 af3f 13d2 6fbf 5dcc 31bf a35c 29bf
00000040: 73ff 00bf e2d9 20bf 111c a73e 63b8 793e
00000050: fcda 12bf 88ce e33d 950f a03d 754a 5cbf
00000060: b8b5 5bbd 36b6 0f3f d39a 8abf e7b7 023f
00000070: f8f9 863d 923b edbd 4d0e fc3e 052f 223f

running_var f4 [32]
2.7251172 0.5896816 2.5805793 8.634746 0.82965237 2.3468897 3.277824 0.61716783
5.0700464 8.4022 19.991537 1.578736 13.16956 6.6788335 2.7069383 2.7322347
1.740825 2.8210707 1.204335 1.6232133 3.8427963 1.3498696 0.38324738 4.955344
0.76376766 1.8652318 7.6902013 1.8098601 0.48261195 0.66493285 2.0952606 3.210254
00000000: 5268 2e40 60f5 163f 3628 2540 eb27 0a41
00000010: 1964 543f 7133 1640 dec7 5140 b6fe 1d3f
00000020: d23d a240 696f 0641 abee 9f41 0514 ca3f
00000030: 85b6 5241 01b9 d540 7a3e 2d40 efdc 2e40
00000040: 5bd3 de3f 6c8c 3440 a627 9a3f 74c5 cf3f
00000050: 60f0 7540 87c8 ac3f 0039 c43e 2e92 9e40
00000060: 4786 433f eabf ee3f 2116 f640 7fa9 e73f
00000070: ea18 f73e 0a39 2a3f c018 0640 cd74 4d40

weight f4 [64, 32, 3]
0.064742774 -0.014150134 0.0113839535 0.028007263 0.08247567 -0.0029889205 0.044107314 0.03654962
-0.08133847 -0.042596724 0.10758979 0.08239285 0.02158401 -0.07775674 0.02173459 -0.040130943
0.07561728 -0.09651627 0.03366353 -0.021288704 -0.033347238 0.04510072 -0.0063693067 -0.09002069
-0.023811126 -0.07813296 -0.055971663 -0.06924321 -0.05736317 0.08355425 -0.0718763 -0.041061424
0.062338054 0.03851356 0.019745922 -0.01923057 0.0089384625 -0.1079494 0.006762187 -0.0021637906
0.0048710736 -0.06170733 -0.07390128 0.005883305 0.029467579 -0.026073765 -0.045255143 0.03792773
-0.09677794 0.058426924 -0.06845117 0.09125403 -0.09888403 0.09867009 0.056092955 -0.005817204
0.13578941 0.0719321 0.012507326 0.07290322 0.09562892 -0.021154048 0.054654587 0.05933058
0.09728232 0.16712515 0.072471485 0.13064636 0.015759978 0.10036736 0.0961831 0.07484606
-0.08290638 -0.035805173 -0.01633456 0.06331187 -0.058421317 0.021172313 0.035901077 -0.06899465
0.07608427 0.008390948 0.13135329 0.018556923 -0.013251975 -0.032276243 -0.01627932 -0.0067697987
-0.043613344 0.040011022 0.011242179 0.11813822 0.12121225 0.07170293 -0.002657245 -0.007905607
0.027921317 -0.09246778 0.027235596 -0.00064472546 0.093941994 0.043685663 -0.023867657 0.07661793
-0.019007184 -0.043685153 0.07423196 0.058684632 0.12007382 -0.07528512 0.009619469 0.115743175
0.100109376 0.099665344 0.031637114 -0.019326547 0.10785866 0.10857182 0.012367916 -0.0678998
-0.07152179 0.034774426 -0.084684454 0.09896127 0.012700863 0.06465079 0.047073588 0.03388896
0.061425194 0.07992519 -0.06441604 -0.063540034 -0.03711125 0.011952084 0.04712446 -0.0502745
0.046483744 0.0048134425 0.012499129 -0.036647826 0.021148143 -0.024781069 -0.0776413 -0.059850585
-0.023361476 0.032042056 0.040667824 0.051542822 0.036096945 0.01287678 -0.08479188 -0.12346997
-0.03213747 -0.13467436 0.031171305 0.050978433 -0.11028815 -0.04979999 0.06575259 0.012681767
0.08214808 0.02594872 0.056396175 0.022053353 -0.0032283198 0.017955063 -0.072786644 -0.07692293
0.012300912 -0.02899049 0.20811565 -0.072639294 -0.12338486 -0.0646573 0.0007887258 0.031325616
-0.030798048 0.06283815 0.13532259 0.2122268 -0.11073969 -0.1577179 -0.011640735 0.021844838
0.036208916 -0.008742441 -0.027022298 -0.046651382 0.08912424 0.015880475 0.05608229 0.114571586
0.032426376 -0.033460062 -0.06567268 0.12895103 0.09129779 0.08320247 -0.09693242 -0.0830258
0.037719376 -0.09733722 0.015302398 0.03672707 0.03199629 0.03766986 0.010076305 0.027073028
-0.020854276 -0.09113582 0.043942545 -0.012480127 0.034490947 -0.06291239 -0.042916972 0.082623586
0.04110163 0.05556167 -0.038185675 -0.038207497 0.06415345 0.06792799 -0.07696682 -0.090133406
-0.01613013 0.1250839 -0.0252849 0.09535743 0.038341984 -0.041127626 -0.072087705 0.05543075
-0.06785358 0.06463104 -0.06252147 -0.04195574 0.076584175 0.042464938 0.08623809 -0.04541879
-0.10912763 -0.071458854 -0.04654547 0.0012479722 -0.09513333 0.04048639 0.10844114 0.048722178
0.099680305 0.062583625 0.13219891 0.051518746 0.045182303 0.015491999 -0.038018323 -0.063907176
00000000: dc97 843d f7d5 67bc c383 3a3c 7d6f e53c
00000010: 01e9 a83d c4e1 43bb dfa9 343d 0eb5 153d
00000020: c994 a6bd e779 2ebd 0958 dc3d 95bd a83d
00000030: f3d0 b03c ed3e 9fbd bd0c b23c 5860 24bd
00000040: 3cdd 9a3d 52aa c5bd c5e2 093d a665 aebc
00000050: 1d97 08bd 88bb 383d 9eb5 d0bb c45c b8bd
00000060: 8d0f c3bc 2c04 a0bd 8b42 65bd 62cf 8dbd
00000070: a5f5 6abd 7e1e ab3d e233 93bd 0630 28bd
00000080: 3056 7f3d 65c0 1d3d 33c2 a13c 6e89 9dbc
00000090: a172 123c 9314 ddbd 5695 dd3b 62ce 0dbb
000000a0: 879d 9f3b d3c0 7cbd 8e59 97bd bdc8 c03b
000000b0: fe65 f13c a698 d5bc 755d 39bd 1b5a 1b3d
000000c0: 8333 c6bd 1251 6f3d 2130 8cbd 65e3 ba3d
000000d0: b683 cabd 8b13 ca3d bac1 653d 3e9e bebb
000000e0: 610c 0b3e 2351 933d 87eb 4c3c 494e 953d
000000f0: 18d9 c33d 414b adbc 7ddd 5f3d 9f04 733d
00000100: f43b c73d db22 2b3e ee6b 943d 29c8 053e
00000110: 121b 813c 678d cd3d a5fb c43d e448 993d
00000120: d2ca a9bd 72a8 12bd 0ed0 85bc a7a9 813d
00000130: 314b 6fbd 8f71 ad3c 020d 133d 114d 8dbd
00000140: 12d2 9b3d 307a 093c 7a81 063e b004 983c
00000150: d01e 59bc 1834 04bd 355c 85bc 30d5 ddbb
00000160: e8a3 32bd 99e2 233d 1e31 383c 73f2 f13d
00000170: 213e f83d fcd8 923d 2c25 2ebb 8586 01bc
00000180: 3fbb e43c bf5f bdbd 2f1d df3c cb02 29ba
00000190: a964 c03d bdef 323d 1b86 c3bc dce9 9c3d
000001a0: f4b4 9bbc 34ef 32bd ed06 983d 4c5f 703d
000001b0: 43e9 f53d 162f 9abd fa9a 1d3c c20a ed3d
000001c0: 2506 cd3d 581d cc3d eb95 013d b552 9ebc
000001d0: 00e5 dc3d e75a de3d cda2 4a3c 0d0f 8bbd
000001e0: 047a 92bd a16f 0e3d 0b6f adbd 35ac ca3d
000001f0: 4817 503c a267 843d 3cd0 403d 26cf 0a3d
00000200: fc98 7b3d d1af a33d 8fec 83bd 4721 82bd
00000210: f701 18bd acd2 433c 9405 413d a2ec 4dbd
00000220: bd65 3e3d 15ba 9d3b 26c9 4c3c 081c 16bd
00000230: df3e ad3c ab01 cbbc 6702 9fbd e325 75bd
00000240: 9160 bfbc 883e 033d 4e93 263d 911e 533d
00000250: 64da 133d 21f9 523c 5da7 adbd d3dd fcbd
00000260: 94a2 03bd 13e8 09be f75a ff3c c3ce 503d
00000270: c1de e1bd 13fb 4bbd 4ba9 863d 30c7 4f3c
00000280: 413d a83d 6992 d43c adff 663d 3ca9 b43c
00000290: 3892 53bb 7f16 933c 2a11 95bd c589 9dbd
000002a0: c489 493c 777d edbc 451c 553e e9c3 94bd
000002b0: 34b1 fcbd 0c6b 84bd 7ec2 4e3a 4a4f 003d
000002c0: 304c fcbc 4ab1 803d 0192 0a3e fb51 593e
000002d0: 7ecb e2bd cd80 21be c8b8 3ebc f2f3 b23c
000002e0: cd4f 143d 753c 0fbc de5d ddbc 8515 3fbd
000002f0: c586 b63d c517 823c 8bb6 653d 82a4 ea3d
00000300: 85d1 043d 6b0d 09bd 667f 86bd bd0b 043e
00000310: 56fa ba3d 0e66 aa3d 8184 c6bd 6e09 aabd
00000320: a27f 1a3d bd58 c7bd e9b6 7a3c 206f 163d
00000330: 8b0e 033d b64b 1a3d 1617 253c 41c8 dd3c
00000340: 96d6 aabc 6ba5 babd 19fd 333d 7279 4cbc
00000350: 6146 0d3d 36d8 80bd b5c9 2fbd 8e36 a93d
00000360: 2f5a 283d a294 633d 9568 1cbd 777f 1cbd
00000370: e262 833d d41d 8b3d c8a0 9dbd dd97 b8bd
00000380: 5623 84bc fe15 003e 4722 cfbc c24a c33d
00000390: 7c0c 1d3d 7175 28bd b8a2 93bd 5b0b 633d
000003a0: d1f6 8abd 475d 843d 420b 80bd c8d9 2bbd
000003b0: 2ad8 9c3d b7ef 2d3d 999d b03d 0e09 3abd
000003c0: 4f7e dfbd 0559 92bd 76a6 3ebd 0093 a33a
000003d0: 43d5 c2bd 0fd5 253d 6316 de3d e890 473d
000003e0: 3025 cc3d d82b 803d 275f 073e 5205 533d
000003f0: 1411 393d 27d2 7d3c 1ab9 1bbd c4e1 82bd

bias f4 [64]
0.088400535 0.073707215 -0.0887798 -0.012153753 -0.07697984 0.06983204 -0.019967945 -0.018216224
0.0061338446 -0.010603381 -0.040082548 -0.017981272 0.014251167 0.05777935 0.03576104 -0.045726493
-0.055534694 -0.08472037 0.0041671363 -0.06548594 0.056828786 -0.015506739 0.09220071 0.013870956
-0.013125572 0.0035727804 0.0059903846 -0.08311137 0.09516857 -0.055948716 0.03688269 -0.08334182
-0.010591835 0.008185155 -0.09464907 0.0019225809 -0.0019813583 -0.031365752 -0.052662574 0.018340813
0.017741052 -0.02868593 -0.08797548 -0.08686745 0.0192531 0.077292584 0.049754784 0.09970444
0.0892621 0.031056913 -0.022159796 0.071423806 0.09936845 -0.031102575 -0.054854088 0.07488171
-0.063708276 -0.010673482 -0.08059491 0.009793078 0.06941698 -0.092051886 0.069196604 0.0055489372
00000000: 570b b53d cff3 963d 2fd2 b5bd 8920 47bc
00000010: 9ba7 9dbd 1a04 8f3d d193 a3bc 313a 95bc
00000020: 6bfe c83b ceb9 2dbc 992d 24bd 764d 93bc
00000030: ba7d 693c 0aaa 6c3d 2b7a 123d b44b 3bbd
00000040: 5978 63bd e081 adbd 798c 883b 7e1d 86bd
00000050: 4dc5 683d fa0f 7ebc bad3 bc3d 0243 633c
00000060: a40c 57bc 4f25 6a3b fd4a c43b 4b36 aabd
00000070: bde7 c23d 7b2a 65bd 4e12 173d 1eaf aabd
00000080: 6089 2dbc 071b 063c 5fd7 c1bd 1cff fb3a
00000090: add9 01bb 6079 00bd b6b4 57bd 793f 963c
000000a0: af55 913c c1fe eabc 7d2c b4bd 90e7 b1bd
000000b0: adb8 9d3c 934b 9e3d accb 4b3d d731 cc3d
000000c0: 0ccf b63d 116b fe3c 7688 b5bc a546 923d
000000d0: b081 cb3d d4ca febc aeae 60bd 955b 993d
000000e0: 7c79 82bd d4df 2ebc f20e a5bd 2573 203c
000000f0: 7d2a 8e3d b385 bcbd f3b6 8d3d dcd3 b53b

weight f4 [64]
0.9526658 1.0281724 1.0116764 1.104503 1.0180544 1.0084512 1.0185899 0.985897
1.0041878 1.0046664 1.0005884 1.002792 0.9887879 1.0312303 1.0354434 1.0349767
0.9796727 1.0042794 1.0015574 1.0094163 1.0047715 0.98622614 0.97480494 1.0560852
0.98142195 1.0039341 1.0343504 1.0032332 0.9812431 0.9559718 0.978184 0.95575213
0.96378225 0.9965014 1.0304471 1.0008053 1.0135151 0.9528944 0.9960195 1.0581633
0.9667587 0.94099 0.9983972 1.0876433 1.0056127 0.95461226 1.0017834 0.9615492
0.99990314 1.0182507 0.98117906 1.0039886 0.9582884 0.98065704 0.99817544 1.009992
1.0877018 1.0254992 1.0005652 0.9750801 0.9531206 1.0006652 0.9326515 0.9913053
00000000: e8e1 733f 279b 833f 9d7e 813f 5b60 8d3f
00000010: 9b4f 823f ee14 813f 2761 823f bf63 7c3f
00000020: 3a89 803f e998 803f 4813 803f 7d5b 803f
00000030: 3421 7d3f 5bff 833f 6989 843f 1e7a 843f
00000040: d4cb 7a3f 3a8c 803f 0833 803f 8e34 813f
00000050: 5a9c 803f 5179 7c3f d18c 793f cd2d 873f
00000060: 783e 7b3f ea80 803f 9865 843f f269 803f
00000070: bf32 7b3f 91ba 743f 446a 7a3f 2cac 743f
00000080: 6fba 763f b71a 7f3f b1e5 833f 631a 803f
00000090: ddba 813f e3f0 733f 22fb 7e3f e571 873f
000000a0: 807d 773f b8e4 703f f596 7f3f e537 8b3f
000000b0: ebb7 803f 7861 743f 703a 803f 1728 763f
000000c0: a7f9 7f3f 0a56 823f 8d2e 7b3f b382 803f
000000d0: 6352 753f 570c 7b3f 6d88 7f3f 6b47 813f
000000e0: d039 8b3f 8f43 833f 8512 803f d99e 793f
000000f0: b6ff 733f cc15 803f 40c2 6e3f 2fc6 7d3f

bias f4 [64]
-0.005105115 -0.0109299775 0.01696348 -0.027730249 -0.016015852 0.008599555 0.016625406 0.012735459
-0.014533921 -0.0010292003 -0.0028610588 -0.010327455 -0.0010392477 0.034240983 0.007865292 0.02295716
-0.0013954097 0.014166888 0.025318705 0.019607512 0.015284417 0.0051855305 0.00600416 -0.023753066
0.01806737 0.008625132 0.017623182 0.00079019426 -0.012796652 -0.0004075936 0.013491629 0.032813307
-0.0040032146 0.011388905 0.017257076 -0.00087893027 -0.0038674702 -0.027406622 0.004024264 -0.0030547434
-0.0030077838 -0.00089264865 0.007087692 0.049405813 0.011273819 0.009638257 0.017851437 -0.008914522
0.012858528 -0.019760879 -0.016844084 0.017244613 0.023085555 -0.006987888 -0.010459175 0.029708602
0.011514022 -0.051825486 0.007582251 -0.017980792 -0.01428662 0.014894437 0.018796122 -0.017336182
00000000: cf48 a7bb a613 33bc fff6 8a3c 8c2a e3bc
00000010: ad33 83bc 26e5 0c3c 0132 883c 63a8 503c
00000020: af1f 6ebc 3be6 86ba 9a80 3bbb 7c34 29bc
00000030: 5e37 88ba 4640 0c3d 6ddd 003c a710 bc3c
00000040: 2ee6 b6ba 3c1c 683c 2c69 cf3c ef9f a03c
00000050: 7e6b 7a3c 62eb a93b 8bbe c43b ca95 c2bc
00000060: 0502 943c 6d50 0d3c 7e5e 903c 0a25 4f3a
00000070: 0ca9 51bc 49b2 d5b9 fe0b 5d3c 3f67 063d
00000080: 662d 83bb 8898 3a3c b65e 8d3c 0368 66ba
00000090: 6275 7dbb da83 e0bc f9dd 833b 1732 48bb
000000a0: 3d1e 45bb a300 6aba df3f e83b c05d 4a3d
000000b0: d3b5 383c c8e9 1d3c 2d3d 923c 370e 12bc
000000c0: 93ac 523c 91e1 a1bc 9bfc 89bc 9344 8d3c
000000d0: eb1d bd3c a7fa e4bb f65c 2bbc 745f f33c
000000e0: 4fa5 3c3c f646 54bd 8874 f83b 744c 93bc
000000f0: 6d12 6abc cc07 743c 53fa 993c 9c04 8ebc

running_mean f4 [64]
0.5415712 0.338887 0.11288154 -0.32293376 -0.3142797 -0.077548236 -0.538359 -0.044315767
-0.01173816 0.009066938 -0.24726999 0.08651942 -0.19141428 -0.7386048 -0.10035509 -0.32818037
-0.49590802 -0.6497114 -0.19069047 -0.14186859 -0.28983697 -0.45663282 0.12871546 -0.030663528
-0.21133043 -0.2255209 0.1409444 -0.25928977 1.0050273 0.055930894 -0.22071934 0.5039652
0.5005605 -0.60472184 -0.32552147 -0.17684385 -0.4537843 0.5655073 -0.250281 1.023253
-0.106405936 0.10587703 -0.2928363 -0.4009036 -0.4710318 0.21856806 -0.42861134 -0.033164483
0.046838187 0.5545544 -0.5226921 -0.4713588 0.11363025 -0.09914681 -0.01077121 -0.24713942
-0.4275238 0.9266729 -0.43697438 0.5755454 0.43284607 0.023452215 0.25892502 -0.35828593
00000000: 69a4 0a3f 9982 ad3e 702e e73d 9357 a5be
00000010: 45e9 a0be 9cd1 9ebd e5d1 09bf 7384 35bd
00000020: 6951 40bc 7f8d 143c 5834 7dbe 1831 b13d
00000030: 1b02 44be 3415 3dbf f886 cdbd 4207 a8be
00000040: a8e7 fdbe 7c53 26bf 5d44 43be 0046 11be
00000050: 8365 94be c7cb e9be fccd 033e 1432 fbbc
00000060: 0167 58be f3ee 66be bb53 103e a1c1 84be
00000070: bca4 803f cb17 653d 4004 62be dd03 013f
00000080: bc24 003f 0dcf 1abf c0aa a6be 8e16 35be
00000090: 6a56 e8be 16c5 103f d524 80be f4f9 823f
000000a0: 5beb d9bd 0ed6 d83d a4ee 95be 3d43 cdbe
000000b0: 152b f1be 4ed0 5f3e f272 dbbe 7bd7 07bd
000000c0: 66d9 3f3d 47f7 0d3f 26cf 05bf f155 f1be
000000d0: fab6 e83d 7c0d cbbd bb79 30bc 1e12 7dbe
000000e0: 66e4 dabe 6f3a 6d3f 1bbb dfbe f156 133f
000000f0: 009e dd3e dc1e c03c d291 843e 4171 b7be

running_var f4 [64]
1.7446787 0.70196885 1.6587561 1.1358906 0.7986082 0.28741944 0.39505026 0.26966822
0.23059407 0.38528863 0.18999079 0.41857794 0.2560081 2.7292275 0.50586855 0.57881063
0.63723683 2.2740297 0.40008795 0.30172998 0.35258532 2.3299398 0.67071813 0.8602263
0.23872527 0.32622722 2.1618643 0.21621637 3.4138012 0.964003 0.30543476 2.8264186
2.5423372 2.9365387 0.41457993 0.5496127 0.66001856 0.9163241 0.13584818 9.712597
0.20733982 1.0676432 0.4631268 0.4170925 0.9942959 1.4821627 1.7937484 0.57953733
0.55476576 1.0961155 2.7551298 1.1832827 0.6800234 0.34839484 0.16762911 0.44303215
0.5949936 2.2163262 0.75674355 1.7796093 1.1922691 0.17557882 0.35121685 1.0481424
00000000: a251 df3f 3bb4 333f 1f52 d43f dd64 913f
00000010: 9671 4c3f a428 933e 0744 ca3e f411 8a3e
00000020: da20 6c3e 8d44 c53e f28c 423e d94f d63e
00000030: 7e13 833e aaab 2e40 9a80 013f ef2c 143f
00000040: f421 233f b489 1140 54d8 cc3e 5a7c 9a3e
00000050: 1086 b43e bc1d 1540 2fb4 2b3f ca37 5c3f
00000060: 6674 743e 4107 a73e fc5b 0a40 d367 5d3e
00000070: b87b 5a40 e7c8 763f f261 9c3e 0be4 3440
00000080: a7b5 2240 40f0 3b40 d243 d43e 6bb3 0c3f
00000090: faf6 283f 3794 6a3f c91b 0b3e cc66 1b41
000000a0: e450 543e 88a8 883f f51e ed3e 268d d53e
000000b0: 2d8a 7e3f 82b7 bd3f 8c99 e53f 8f5c 143f
000000c0: 2105 0e3f 834d 8c3f 0c54 3040 cf75 973f
000000d0: 0316 2e3f cf60 b23e f7a6 2b3e 1cd5 e23e
000000e0: 8051 183f 4ad8 0d40 f2b9 413f 3dca e33f
000000f0: 469c 983f efca 333e b2d2 b33e 8829 863f

weight f4 [64, 64, 3]
-0.0055491873 -0.010155638 0.000375079 -0.09198964 -0.0935687 -0.12246726 -0.094570346 -0.0125314975
-0.016832642 -0.033795733 -0.057763778 -0.06669353 -0.0069368966 0.003790152 0.00091888907 0.00025497578
-0.026203074 0.051810693 0.03979011 -0.0032835333 -0.0023280506 0.004238447 -0.0031340702 -0.09117718
-0.0916857 -0.072864264 -0.046295725 -0.022947293 0.009834545 0.015675992 -0.037608314 0.039181285
-0.0049629905 -0.043078672 -0.080704615 -0.032373775 0.040038742 -0.07130109 0.016529294 0.04527039
0.036271565 0.033683255 -0.027365912 -0.060018785 -0.06034238 -0.07501011 -0.038468253 -0.03956568
-0.011753039 -0.0699746 -0.04327558 0.03463713 0.010703527 -0.034118302 -0.0005872634 -0.079781175
-0.023848167 0.010797149 -0.05639791 0.007301281 -0.07303923 -0.06994097 -0.07856517 0.03314046
-0.016703866 -0.0053561334 -0.051372856 0.025374308 -0.00215853 -0.06948171 -0.023823634 -0.08665989
-0.06389093 -0.06205301 -0.053190168 -0.06623937 0.042408314 -0.0040428857 0.044253077 -0.011879721
0.012723831 0.003718776 -0.036640357 -0.016830025 -0.073684365 -0.008682037 -0.08257594 0.055736657
-0.017014679 0.008984958 -0.056077026 -0.071638756 -0.016218318 -0.04870605 -0.047097467 -0.0058115413
-0.0056089703 0.034017663 -0.06403906 -0.0003381439 -0.03830631 -0.03277889 -0.055817 -0.08202835
-0.08511314 -0.06138955 -0.041076988 -0.025932444 -0.044554282 0.055358037 0.021331988 0.050206788
-0.020166812 0.043800507 0.0027910303 0.04420322 0.0068194065 -0.009219633 -0.050792657 -0.06467398
-0.08714806 -0.01830416 -0.04838473 -0.067216545 0.037865918 -0.09854899 0.036394697 0.030135954
-0.047821198 -0.045251094 0.038529564 -0.033344466 -0.011109747 0.020516865 0.00691966 -0.022619601
-0.064878106 -0.046109356 -0.0077495784 -0.024398882 0.041368708 0.03204196 -0.031093992 -0.11415225
-0.020411994 -0.0008919107 -0.032363802 -0.07709962 -0.07368426 -0.061037503 0.011346242 -0.03182338
0.016470188 -0.05946188 -0.023483219 0.045600377 -0.027895264 0.036304213 -0.07772038 0.0063544465
-0.001357561 -0.008240067 -0.0647392 -0.06567358 -0.009355849 -0.066665195 0.0031210855 -0.058692
-0.003849074 -0.04649052 -0.029289257 -0.0066578113 -0.066553675 -0.022982853 0.012034659 -0.0093273055
-0.04521282 -0.04190471 0.017554969 -0.0051509184 0.03700046 -0.055977315 -0.089529306 0.045509864
0.020389078 -0.02180173 -0.020784328 -0.04905215 -0.10928153 -0.09814117 0.0046039345 0.027526679
-0.038102914 -0.07854962 -0.037947986 0.097265065 0.0878715 0.09609697 0.020628342 0.012036123
-0.031319845 0.003932468 0.11667437 0.06110354 0.070073724 0.12076917 0.10918318 -0.018906359
0.04285823 0.013053205 -0.039883547 -0.07235114 -0.04680531 0.07598363 0.079604045 -0.008075174
0.017899038 0.11315531 0.028231911 -0.04131707 0.045771457 -0.07329784 -0.055246044 -0.04239089
0.0012471514 -0.018525219 -0.0021360028 0.021624118 -0.009787782 -0.03166946 -0.004178575 -0.029730229
-0.06454614 -0.083139226 0.10928267 0.1430351 0.02321748 -0.0044886693 0.092057794 0.061654326
-0.0039210105 0.059371203 -0.011415715 -0.007988895 0.066010736 0.03190335 -0.025456963 0.037558094
0.032421883 -0.036477454 0.003533465 0.051782813 -0.047628284 -0.06549828 0.008074039 0.05397796
00000000: f5d5 b5bb d563 26bc 40a6 c439 1065 bcbd
00000010: f2a0 bfbd 1dd0 fabd 19ae c1bd e950 4dbc
00000020: 9ce4 89bc 656d 0abd b699 6cbd 9e96 88bd
00000030: e84e e3bb 3364 783b 9ae1 703a 45ae 8539
00000040: d4a7 d6bc 7337 543d f4fa 223d 8c30 57bb
00000050: 3592 18bb ace2 8a3b f964 4dbb 1abb babd
00000060: b6c5 bbbd dc39 95bd 96a0 3dbd f6fb bbbc
00000070: 1221 213c f06a 803c 2d0b 1abd 8e7c 203d
00000080: 95a0 a2bb 4373 30bd 7648 a5bd 5d9a 04bd
00000090: aaff 233d 4e06 92bd 7168 873c 726d 393d
000000a0: 7e91 143d 74f7 093d 7a2e e0bc 42d6 75bd
000000b0: 9229 77bd e79e 99bd e390 1dbd 9f0f 22bd
000000c0: d28f 40bc d84e 8fbd bc41 31bd aadf 0d3d
000000d0: d95d 2f3c a2bf 0bbd 94f2 19ba 5064 a3bd
000000e0: 3b5d c3bc 86e6 303c 7f01 67bd 963f ef3b
000000f0: 9895 95bd 363d 8fbd c7e6 a0bd 4abe 073d
00000100: 8cd6 88bc 8182 afbb 586c 52bd c8dd cf3c
00000110: 2076 0dbb 6d4c 8ebd c829 c3bc be7a b1bd
00000120: 3fd9 82bd 4c2b 7ebd efdd 59bd 82a8 87bd
00000130: 57b4 2d3d 2f7a 84bb b742 353d 29a3 42bc
00000140: 9e77 503c b5b6 733b 3314 16bd 1fdf 89bc
00000150: d4e7 96bd 1a3f 0ebc 931d a9bd 1f4c 643d
00000160: 5e62 8bbc a535 133c 06b1 65bd 57b7 92bd
00000170: 47dc 84bc ff7f 47bd 46e9 40bd be6e bebb
00000180: 74cb b7bb 1b56 0b3d e926 83bd e848 b1b9
00000190: 14e7 1cbd 2843 06bd 5ea0 64bd 7bfe a7bd
000001a0: cc4f aebd 9c73 7bbd 5840 28bd 4770 d4bc
000001b0: 8d7e 36bd 1cbf 623d 6cc0 ae3c a2a5 4d3d
000001c0: df34 a5bc 2968 333d b8e9 363b 700e 353d
000001d0: 5475 df3b f20d 17bc f60b 50bd cb73 84bd
000001e0: af7a b2bd 9bf2 95bc 112f 46bd d4a8 89bd
000001f0: 4b19 1b3d 0ed4 c9bd 9b12 153d addf f63c
00000200: 29e0 43bd 3659 39bd 2dd1 1d3d 3594 08bd
00000210: a805 36bc fc12 a83c 51be e23b be4c b9bc
00000220: d0de 84bd 2add 3cbd 2df0 fdbb 2ae0 c7bc
00000230: 3c72 293d 6e3e 033d d4b8 febc a8c8 e9bd
00000240: 0e37 a7bc 1dcf 69ba e88f 04bd 68e6 9dbd
00000250: c6e7 96bd 7602 7abd 97e5 393c 3c59 02bd
00000260: 7dec 863c 4d8e 73bd e15f c0bc 76c7 3a3d
00000270: 9c84 e4bc bab3 143d dd2b 9fbd f638 d03b
00000280: 30f0 b1ba 5901 07bc fc95 84bd df7f 86bd
00000290: 4649 19bc c387 88bd 208b 4c3b 0667 70bd
000002a0: bf40 7cbb d86c 3ebd 06f0 efbc c529 dabb
000002b0: 4b4d 88bd 8946 bcbc 052d 453c 8ed1 18bc
000002c0: 1431 39bd 46a4 2bbd 70cf 8f3c 09c9 a8bb
000002d0: cb8d 173d 7848 65bd 245b b7bd 8d68 3a3d
000002e0: ff06 a73c 8b99 b2bc e543 aabc e8ea 48bd
000002f0: ffce dfbd 3dfe c8bd 9adc 963b a17f e13c
00000300: cd11 1cbd a0de a0bd 596f 1bbd e832 c73d
00000310: f9f5 b33d 7dce c43d c5fc a83c 2933 453c
00000320: 3d49 00bd efdb 803b f9f2 ee3d b547 7a3d
00000330: d082 8f3d d455 f73d 6e9b df3d 82e1 9abc
00000340: 1d8c 2f3d 1cdd 553c ee5c 23bd d62c 94bd
00000350: edb6 3fbd 4e9d 9b3d 7207 a33d bc4d 04bc
00000360: 01a1 923c f9bd e73d 9c46 e73c 173c 29bd
00000370: da7a 3b3d 2e1d 96bd ad49 62bd 12a2 2dbd
00000380: 7577 a33a 33c2 97bc 2efc 0bbb 1025 b13c
00000390: ef5c 20bc d6b7 01bd 6dec 88bb cf8c f3bc
000003a0: c430 84bd e644 aabd 98cf df3d cb77 123e
000003b0: 9632 be3c b015 93bb cc88 bc3d 3f89 7c3d
000003c0: d27b 80bb 382f 733d fb08 3bbc dbe3 02bc
000003d0: a330 873d 16ad 023d 1f8b d0bc 84d6 193d
000003e0: cfcc 043d 6269 15bd b591 673b 371a 543d
000003f0: e015 43bd f623 86bd f948 043c fe17 5d3d

bias f4 [64]
-0.011285999 0.064906664 -0.024697477 0.0702833 -0.0057611773 -0.03500143 0.035039466 0.042751767
0.0102879945 0.03464994 0.033819783 -0.06812108 -0.034896266 -0.018727543 -0.04661916 -0.055926677
0.004690456 -0.07052763 0.04008566 -0.065293156 -0.05347967 -0.046012316 -0.05219949 0.03400535
-0.034610122 0.052342914 0.016134758 0.011366593 0.046666685 -0.0670624 0.0630721 -0.019514684
0.021717427 -0.067135505 0.039714474 -0.045369375 -0.064509846 0.0074080857 -0.069286466 0.050224707
-0.030384116 -0.05078333 0.019201303 -0.03586006 -0.03786857 -0.036945563 -0.03094099 -0.060430195
0.05492381 0.005721723 -0.03653377 -0.050910406 0.0054166736 0.055120815 0.05915226 0.035386723
0.03702193 0.021770293 0.013527999 0.067398824 -0.05438597 0.06046848 0.06677405 0.035965547
00000000: e9e8 38bc c9ed 843d 5d52 cabc b1f0 8f3d
00000010: 42c8 bcbb a95d 0fbd 8b85 0f3d 7a1c 2f3d
00000020: fa8e 283c 18ed 0d3d 9d86 0a3d 1183 8bbd
00000030: 63ef 0ebd 816a 99bc bbf3 3ebd 5f13 65bd
00000040: 66b2 993b ca70 90bd dc30 243d 6bb8 85bd
00000050: 800d 5bbd 6977 3cbd 22cf 55bd 3249 0b3d
00000060: 58c3 0dbd 8665 563d 0a2d 843c f23a 3a3c
00000070: 9125 3f3d 0358 89bd f22b 813d 42dd 9fbc
00000080: bfe8 b13c 577e 89bd a5ab 223d 3dd5 39bd
00000090: bd1d 84bd 87bf f23b 10e6 8dbd 6cb8 4d3d
000000a0: 1ce8 f8bc 2e02 50bd 0d4c 9d3c 00e2 12bd
000000b0: 131c 1bbd 3b54 17bd f677 fdbc a785 77bd
000000c0: caf7 603d 4b7d bb3b 6fa4 15bd 6e87 50bd
000000d0: 5a7e b13b 5dc6 613d a449 723d abf1 103d
000000e0: 4fa4 173d 9d57 b23c 8aa4 5d3c 6508 8a3d
000000f0: d3c3 5ebd ccad 773d d5c0 883d 9c50 133d

weight f4 [64]
1.073722 1.1829578 1.0805694 1.1273631 0.99600756 1.0886004 1.1034133 1.0739474
1.0776025 1.1664474 1.168377 1.1037791 0.9728401 1.102925 1.0912641 1.0563524
1.1277987 1.0089515 1.0761483 1.095623 1.0343589 1.0774046 1.2118051 1.1145281
0.99717534 1.0989221 1.0650798 1.0682284 1.1346952 1.0890887 1.2215858 1.0557412
1.0055239 1.0118161 1.0887586 1.1229105 1.2985327 1.0682873 1.1346447 1.1126177
1.0656778 1.1296707 1.024406 0.97425455 1.0874331 1.0961636 1.1022954 1.181768
1.0957843 1.1550479 1.0473988 1.0188127 1.0229998 1.1712943 1.0826746 1.094057
1.1046702 1.0358402 1.116742 1.0157853 1.0897295 1.0601348 1.0824424 1.023867
00000000: b96f 893f 296b 973f 1950 8a3f 6f4d 903f
00000010: 5afa 7e3f 4257 8b3f a63c 8d3f 1c77 893f
00000020: e1ee 893f 264e 953f 618d 953f a248 8d3f
00000030: 0c0c 793f a52c 8d3f 8bae 8b3f 8e36 873f
00000040: b55b 903f 5325 813f 3abf 893f 603d 8c3f
00000050: df65 843f 65e8 893f 6e1c 9b3f dba8 8e3f
00000060: e246 7f3f 7ba9 8c3f 8954 883f b5bb 883f
00000070: b13d 913f 4267 8b3f ec5c 9c3f 8722 873f
00000080: 02b5 803f 3183 813f 715c 8b3f 88bb 8f3f
00000090: 5236 a63f a3bd 883f 0a3c 913f 426a 8e3f
000000a0: 2168 883f 0d99 903f bc1f 833f bf68 793f
000000b0: 0231 8b3f 174f 8c3f 0418 8d3f 2c44 973f
000000c0: a942 8c3f 9cd8 933f 2a11 863f 7468 823f
000000d0: a8f1 823f f9ec 953f 1595 8a3f 0f0a 8c3f
000000e0: d565 8d3f 6996 843f 67f1 8e3f 4105 823f
000000f0: 427c 8b3f 7fb2 873f 798d 8a3f 130e 833f

bias f4 [64]
0.18511342 0.0046316083 -0.025569236 -0.016620016 0.013596565 0.21416128 0.18457922 0.029447004
0.00921139 0.032523807 0.008055843 0.22414817 -0.057908006 0.23114133 0.0115280785 -0.009493306
0.036413644 0.021367138 0.011825942 0.009405836 0.00057174166 0.18228923 -0.031028261 0.017338883
-0.011111676 0.21092696 0.14380234 0.09046354 0.039441336 -0.008897431 0.060380004 0.14510481
0.01544209 -0.008534066 -0.008423208 -0.04575862 0.037212454 0.027105415 -0.025467748 0.00038210436
0.016479421 0.03444559 0.079832815 -0.030479062 0.20877767 0.019448541 -0.013640263 0.0076264427
0.016464515 -0.01943021 0.018359676 -0.0044101286 0.04502981 0.023749905 0.0068519367 0.19020756
0.011875421 0.024568146 0.23986445 -0.0080253715 -0.004783804 0.03271996 -0.0011795962 0.00699478
00000000: 5f8e 3d3e bfc4 973b 9376 d1bc b326 88bc
00000010: 21c4 5e3c 184d 5b3e 5602 3d3e d83a f13c
00000020: 5feb 163c af37 053d a8fc 033c 1987 653e
00000030: f230 6dbd 50b0 6c3e 44e0 3c3c d089 1bbc
00000040: 7926 153d 230a af3c 99c1 413c f01a 1a3c
00000050: efe0 153a 07aa 3a3e fb2e febc 460a 8e3c
00000060: bf0d 36bc 3dfd 573e ec40 133e f344 b93d
00000070: 3d8d 213d 88c6 11bc 0651 773d 5b96 143e
00000080: d200 7d3c 78d2 0bbc 7f01 0abc 646d 3bbd
00000090: 166c 183d 2d0c de3c bda1 d0bc 2e55 c839
000000a0: daff 863c d216 0d3d 637f a33d 3aaf f9bc
000000b0: d0c9 553e 8c52 9f3c 697b 5fbc 3de7 f93b
000000c0: 97e0 863c 1b2c 9fbc 0867 963c d782 90bb
000000d0: 2e71 383d 298f c23c 3686 e03b c5c5 423e
000000e0: 2091 423c 2343 c93c 079f 753e d97c 03bc
000000f0: 75c1 9cbb 5d05 063d ae9c 9aba 7834 e53b

running_mean f4 [64]
-1.922128 0.30331582 0.47022447 0.72610384 -1.0716859 -1.1453582 -0.0751129 -0.05737826
0.2524344 0.12762222 0.61466664 -0.8657702 -1.2674159 -1.1056442 0.047679745 0.27982393
-0.049525645 -0.48268473 0.03812192 -0.08311306 0.11389234 -1.4324602 0.25173554 0.6947441
0.47928053 -0.67018425 -1.4279402 -0.46319416 0.26185822 0.047279723 0.2808387 -1.9226475
0.41362014 0.20221856 0.38859934 0.20494722 0.104043044 0.18929921 0.5996026 1.5645984
0.460942 0.07153906 -0.93815565 0.43736285 -1.3578745 0.070419684 0.021811524 0.10163332
-0.0071283705 -0.06829864 0.658886 0.4888846 0.12193791 0.13895243 0.53467304 -0.4524106
0.39631504 0.46319577 -0.54343057 0.12431631 -0.21897687 0.33851314 0.28130847 -0.39425308
00000000: 4a08 f6bf 364c 9b3e 43c1 f03e f1e1 393f
00000010: 012d 89bf 199b 92bf cbd4 99bd 7705 6bbd
00000020: 153f 813e 66af 023e cb5a 1d3f 1ea3 5dbf
00000030: af3a a2bf c085 8dbf d64b 433d 1545 8f3e
00000040: 67db 4abd 7422 f7be bb25 1c3d 2e37 aabd
00000050: 6340 e93d db5a b7bf 7be3 803e c0da 313f
00000060: 4264 f53e 3291 2bbf bfc6 b6bf c927 edbe
00000070: 4812 863e 62a8 413d 17ca 8f3e 5019 f6bf
00000080: 05c6 d33e 6212 4f3e 7ef6 c63e afdd 513e
00000090: 8514 d53d a7d7 413e 8e7f 193f c344 c83f
000000a0: 9700 ec3e 1283 923d f82a 70bf 06ee df3e
000000b0: d5ce adbf 3238 903d 15ae b23c 2125 d03d
000000c0: 1b95 e9bb 28e0 8bbd c1ac 283f 154f fa3e
000000d0: 95ba f93d 8c49 0e3e 55e0 083f 5da2 e7be
000000e0: cee9 ca3e ff27 ed3e 441e 0bbf 8d99 fe3d
000000f0: 793b 60be 9851 ad3e aa07 903e 8adb c9be

running_var f4 [64]
10.151612 1.0782884 0.9092094 0.84070045 3.1479464 2.104697 0.056483746 0.7333181
0.5608712 0.36956856 1.2510674 1.1220031 4.750321 3.7533836 0.51432693 0.965641
0.6891459 0.5956812 1.3404356 0.6056877 0.5403079 4.4009767 2.0564377 0.97537404
1.288026 1.280872 4.6307917 1.119569 1.3996056 0.64413744 1.2631152 7.441543
0.3413616 0.36778176 1.0571667 1.3162549 1.713024 0.84016293 1.063688 5.102445
0.88904554 1.395343 3.2867913 0.4472483 5.021031 0.88584846 1.1534939 1.7702546
0.56026363 0.75131094 1.4050499 0.5368172 0.9501071 0.650146 0.75042146 0.28801304
0.57669604 0.58151585 0.8216589 0.41505513 0.8197119 0.6733865 0.4504792 0.982121
00000000: 016d 2241 5b05 8a3f f2c1 683f 2538 573f
00000010: f477 4940 5bb3 0640 805b 673d bcba 3b3f
00000020: 4195 0f3f 1738 bd3e fa22 a03f cc9d 8f3f
00000030: a102 9840 7037 7040 eeaa 033f 4034 773f
00000040: de6b 303f 907e 183f 6593 ab3f 590e 1b3f
00000050: 9e51 0a3f cdd4 8c40 ad9c 0340 1db2 793f
00000060: 09de a43f 9df3 a33f 722f 9440 094e 8f3f
00000070: 4726 b33f 31e6 243f c2ad a13f 1f21 ee40
00000080: f3c6 ae3e e44d bc3e 3d51 873f 0a7b a83f
00000090: 5f44 db3f eb14 573f ee26 883f 3b47 a340
000000a0: 7d98 633f 999a b23f ca5a 5240 bbfd e43e
000000b0: 49ac a040 f7c6 623f b0a5 933f b497 e23f
000000c0: 706d 0f3f ea55 403f add8 b33f da6c 093f
000000d0: 383a 733f f86f 263f 9f1b 403f 7276 933e
000000e0: 5aa2 133f 39de 143f 3d58 523f 1b82 d43e
000000f0: a4d8 513f 0f63 2c3f 36a5 e63e 486c 7b3f
